models_bak/model_B.pt (torch, 451559 bytes, 22 tensors)

weight f4 [16, 1, 3, 3]
00000000: 88d7 8b3d 2e95 5ebe ee16 9a3e b251 7abd
00000010: c972 82be a8b8 153e 57bc f43c a0a9 983e
00000020: 6726 5fbe 45cd 92bd 839d 87be b142 bebd
00000030: d291 6cbe a5eb 4b3e 4882 803d 7abc 743d
00000040: f19a 65bd bd5e 983e dd99 85bd c79d a2be
00000050: fe1f 66bd 1d16 0fbc 3782 40be e1e9 e73d
00000060: 2988 2b3e 0765 87be 21d8 adbd 4514 87bc
00000070: 293e 5dbe f8bf 9ebe 403a adbe 4982 41be
00000080: b9b9 933d 8b1a cfbc ec0c a83d 8eef d13d
00000090: 1e31 5ebe 7a9d 39be bc44 92be f4ac c83d
000000a0: 3bc5 14bc 7564 95bd 2c0a 8ebe fb22 30be
000000b0: 334d 483e 9986 dc3d 0874 0b3e 4e93 4a3e
000000c0: df16 bdbc db1f 4fbd a3ea 3ebe 84d8 683e
000000d0: be81 6a3d 0702 a0be 9431 4fbe 68a1 083e
000000e0: 6081 81be a6e3 6c3e 3080 5e3e 29a7 0abe
000000f0: 61fd 37bd 8a28 8b3e aeaa d73d 55df 93be
00000100: 592c acbe b549 983d 3500 33be f116 3a3e
00000110: 19cc d1be 046a 803c 3716 c53d 08a5 96be
00000120: ab3b 0f3e 41dd 143e a67e ca3d 93be efbd
00000130: 9a09 933e 09c7 fa3d 7ce3 623e a8f1 79bd
00000140: 92e2 45be 0795 8cbe af73 c7bc eb75 e3bd
00000150: 6e2a cc3d 8f34 e3bd a739 8a3e 6126 1ebe
00000160: 2f9f 463d d223 c23d 066a 41be f5c8 76be
00000170: 57f1 9cbe 0fe2 d7bd ec74 4d3e f89a ad3c
00000180: 98fc 92be bdf4 1cbe adcc 47be 5316 c8bd
00000190: 626f 0cbd dd7f 913c 4341 09be d5c8 c5bd
000001a0: b2c6 63be 22a8 603e 02ff c93d 74bd 863d
000001b0: a4f9 5bbd 9d85 89be 4df0 953e df14 d6bd
000001c0: 7bf6 37be 536d 82be 5435 a9be 1a11 60bc
000001d0: 179a 383d cf8c 28be afcd 9ebe 29a3 74be
000001e0: b2b4 87be 806e 403e cfaa 8c3e 6a69 853e
000001f0: 5baf 9bbe 6ee3 42be b3de 9fbd 73ef b1bd
00000200: 7046 20be e887 d1bb 2cd8 2e3e 2249 923d
00000210: 6600 9dbd 3a79 963e 3e95 89be 0ebf e2bd
00000220: d20f e63c 19c7 503e 16cb febd 3450 863e
00000230: 933d ac3d ba79 24bd 8897 bc3c 1da6 633e
0.06828219 -0.21736595 0.3009562 -0.061113067 -0.254782 0.14621222 0.029874964 0.29816914
-0.21791993 -0.07168058 -0.2648736 -0.09290064 -0.23102501 0.1991411 0.06274849 0.059750058
-0.056055967 0.2975978 -0.06523488 -0.31761 -0.056182854 -0.0087333 -0.18799673 0.11323906
0.1675116 -0.26444265 -0.08488489 -0.016489157 -0.21605743 -0.31005836 -0.33833504 -0.18897356
0.07213158 -0.025281211 0.0820559 0.102507696 -0.21698424 -0.18126479 -0.28568065 0.09798613
-0.0090802265 -0.07294551 -0.27742136 -0.17200844 0.19560699 0.1076786 0.13618481 0.19782755
-0.023082195 -0.05056749 -0.18644194 0.22738844 0.057252638 -0.31251547 -0.20233756 0.13342822
-0.25294018 0.23133716 0.21728587 -0.13540329 -0.044919375 0.27179366 0.105306014 -0.28881326
-0.33627585 0.074359335 -0.17480548 0.18172814 -0.40976027 0.015675552 0.09623378 -0.29422784
0.13987605 0.14537527 0.098874375 -0.11706271 0.28718263 0.12244994 0.22157091 -0.061021477
-0.19324711 -0.2745745 -0.024347154 -0.111064754 0.0996903 -0.11094009 0.2699711 -0.15444328
0.048491653 0.094794884 -0.18888101 -0.24100097 -0.30652878 -0.10541164 0.20064133 0.021192059
-0.2870834 -0.15327735 -0.19511671 -0.09769883 -0.03428591 0.017761165 -0.13403802 -0.09657446
-0.22243765 0.21939138 0.09863092 0.06579104 -0.053704873 -0.2685975 0.29284897 -0.104531996
-0.17965119 -0.25474033 -0.330485 -0.013675952 0.045068827 -0.16459964 -0.310163 -0.23890366
-0.26505047 0.18792152 0.27474067 0.26056987 -0.30407223 -0.1903207 -0.078061484 -0.086882494
-0.1565187 -0.006394375 0.1707465 0.07142855 -0.076660916 0.29389364 -0.26871675 -0.11071597
0.028083716 0.2038845 -0.12441079 0.26233065 0.08410182 -0.04015515 0.023021474 0.22231336

bias f4 [16]
00000000: 8b3c 86be 8e70 d0bd 9517 0cbe 450d d4bd
00000010: b52e 17be f995 9a3e 866d 77be 4280 183e
00000020: 2110 823e ed7c 483e 6300 c7bd 2367 95be
00000030: e107 1d3d 9d54 f6bd 6342 553e 69bb 98be
-0.26218066 -0.10177718 -0.13680871 -0.103540935 -0.14763911 0.30192545 -0.24162874 0.14892676
0.2540293 0.19578905 -0.09716871 -0.2918025 0.038337592 -0.120278575 0.20826106 -0.29830483

weight f4 [16]
00000000: 75f8 683f dd67 703f 302e 6f3f 8e1d 6e3f
00000010: d537 763f 4f88 6d3f 2886 793f b784 743f
00000020: 6687 613f bb14 643f 3d67 703f ad3c 6d3f
00000030: 0b38 7b3f 2f5b 773f d2d8 6f3f af46 743f
0.91004115 0.9390848 0.9342985 0.93013847 0.9617894 0.92786115 0.9747033 0.95515007
0.88097227 0.8909413 0.9390753 0.9267071 0.9813239 0.9662351 0.93690217 0.95420355

bias f4 [16]
00000000: bb5d c0bc c118 c83c b84a 2ebd 9126 31bc
00000010: ca53 543d 2732 42bc 03d0 14bb 1046 42bd
00000020: 9443 a1bc aa56 043d 102d 40bd 6c10 873c
00000030: cfcb 663c acb2 733c 6199 1fbc 0aa1 d43c
-0.023482194 0.024425866 -0.042551726 -0.010812418 0.05183772 -0.011852778 -0.0022706992 -0.047430098
-0.019685544 0.03230921 -0.046917975 0.016487323 0.014086678 0.014874142 -0.009741158 0.025955696

running_mean f4 [16]
00000000: cd02 df37 8601 413c 428b fb33 c4a0 b038
00000010: f3ab ca33 93d6 b73e 1f75 0d3d f2dd 7a3d
00000020: 5d20 fa3e 9c33 143e 0000 0000 12e1 9a34
00000030: e3f7 933c 2a4f 0936 8ac3 1f3e 923f 9d3d
2.6584976e-05 0.011780148 1.1713429e-07 8.422279e-05 9.4376354e-08 0.35905895 0.034535524 0.06124682
0.48852816 0.14472812 0.0 2.8848496e-07 0.018062538 2.046067e-06 0.15601936 0.07678141

running_var f4 [16]
00000000: af7e d935 ca6f e13a a0f2 2731 83d7 e435
00000010: 8051 1831 aa24 8a3c c880 7d3b 6ce7 a13b
00000020: d6af 943d c684 263c 0400 0000 9cc0 8b31
00000030: 0816 133a 8f1e 8733 807b a53b 4c13 5f3c
1.620463e-06 0.0017199453 2.4439615e-09 1.7050046e-06 2.2165239e-09 0.016863186 0.0038681496 0.0049409177
0.072601005 0.010163492 6e-45 4.0673296e-09 0.0005610888 6.291986e-08 0.0050501227 0.013615441

weight f4 [32, 16, 3, 3]
00000000: 8db3 6cbc c486 8bbd 225d 78bd 8270 e13c
00000010: 28e9 16bd eae7 84bc 84a3 23bd 1e11 78bb
00000020: a028 1b3c 7c92 66bd 3638 9fbd e78a 903d
00000030: 0040 a33b 7d53 a73d e238 a03d b134 ab3d
00000040: 52f9 34bd 2bfa a23d 06a2 b13d f068 7e3c
00000050: 863e 36bd 48ce 0e3c f02f 18bd d335 4d3d
00000060: 4c4f 123d f448 83bc 6c66 e93c df5c 5a3d
00000070: 4c98 b6bc 85b2 efbb d968 8a3d 7b4a 97bd
00000080: d48f d33b faa9 0a3d 1546 8fbd 01ef a6bb
00000090: d6c2 5c3d 7ff9 82bd e9cc 843d 5870 8b3d
000000a0: aee7 58bc 0fd4 bebc 5676 7b3c a99f 553d
000000b0: 15c4 803c ed2e 413d cc86 3bbb 1bb7 563d
000000c0: 5175 a2bd a12d a9bd b246 31bd 08f4 bfbc
000000d0: 4da3 933c a090 d63c f56a 47bd 065c dd3b
000000e0: 3d48 e2bb f686 bf3d 76ec fa3c 18a2 44bd
000000f0: f8ec 0b3b 96e3 abbd dc1a 38bd cb52 713d
00000100: 861c 18bc 3d13 0b3d 191a 863c 1cf2 63bd
00000110: e0d3 ab3d 972f 9b3d d685 c23d ea2e 1f3d
00000120: fd38 dc3c d67e 52bd 87e1 563d 42a9 80bc
00000130: cf6f 21bd 06bf 623d 0765 ba3c 5e4d 283b
00000140: 22e4 533d d340 09bd cd02 d73b 3ac7 94bd
00000150: cf97 523d 1b37 f83c a372 91bd 72a7 8abd
00000160: b1c7 bebd e90c a1bd aa6c 90bd 1f12 833d
00000170: e84f 47bd f4ee a9bd 4a80 cbbc 08c0 56bd
00000180: 7a9e 463c 5e96 343d 974e 5b3d 2673 b8bd
00000190: bd67 923d fe15 f13c b537 81bd 5b2e 063b
000001a0: 3bfb 85bd b9a9 84bd 6584 6ebc f89e babd
000001b0: c430 c4bd 654c 3e3d 44a5 22bd 0573 dc3b
000001c0: c124 6d3c 8e71 103b 2365 8d3d a49e bc3c
000001d0: 0b50 543d 2ae2 9bbd 579d 793d 3429 fc3b
000001e0: 601d 7d3d 666a 063d d7a6 1abd fa74 813c
000001f0: 3821 72bd 8da1 2dbd ed8c 48bd 5fbf 7e3c
00000200: dbd5 cc3c ebab 04bc fc46 533d 8d5f 863d
00000210: bda0 9c3b 3213 9fbb 9a85 1cbd 16bb 5c3d
00000220: fa05 6ab9 01a5 15bd b948 6dbd 750b 83bd
00000230: cbba 5a3d c5af a5bd 5e6a 6e3d b62a 8cbd
00000240: 2f1b 9c3b 32e1 7bbc 52ec 02bd 652e 433c
00000250: 4bd5 b8bd be8e 563c 772a 153d da48 2abd
00000260: 7bd7 2e3d da50 d6bd d96f ebbc 8ba6 3a3d
00000270: 23f1 b33c 90e0 e83a b17b 163d 4d73 2dbc
00000280: bd8e a0bd b11c 3ebc b98f 2fbc ef22 fd3a
00000290: bee7 a33d 5704 d3bc a6a0 31bb 56f6 7ebc
000002a0: c6d6 82bd 8fac bc3d 65a5 b63c 2071 eebc
000002b0: db10 a7bd 6d0e 043a 3b46 9ebd 376f a13d
000002c0: 119f 953d 4208 323a 2524 87bc 0c85 81bc
000002d0: c47b f7bb 4eb7 eb3a d4f4 99bd 6d0b 85bd
000002e0: 64e6 90bd 4cd7 79bd 5775 d0bd 92e1 d23c
000002f0: 7f9b 2bbd 4694 a2bd 7758 33bd b3ee 193d
00000300: d237 a53c 9c02 f83c ecd9 87bb 184f 8bbd
00000310: 62ba 98bc 7ede 2ebd b15c ffbc ad30 3a3d
00000320: ce22 83bc 3cdc bf3d 8604 4fbd 64d3 30bd
00000330: 1327 5fbd 5856 433d 4734 a2bd a952 643d
00000340: 7587 793d 2222 bf3c 099a 5c3d 49de 0dbd
00000350: 7ebb 23bd 4f4f b0bd 4edd 4e3b b288 693c
00000360: c117 93bd 836d 933c 0dee 5ebd 4e4c 803c
00000370: b3fe 6a3b 2ae9 85bd 409f 3bbd 2c9b 463d
00000380: 8712 9d3c 8d6f 243d 2fa0 9c3d f0a0 9bba
00000390: 1574 19bd 3ccf 60bd f2d9 99bd 510e d2bc
000003a0: 1378 10bd a611 29bd 5c2c 943d c534 463b
000003b0: 5f9a 603c f547 d63d 7f83 19bd 40f1 3dbc
000003c0: 4af7 a53c d243 233c c937 983b 2650 b83d
000003d0: 8597 7f3d 5701 9f3d 88f5 05bc ae88 bcbb
000003e0: 94d1 9abd ec77 96bc b7d1 d03d dd57 033c
000003f0: 2d27 453d 4a2f 383d 3b58 50bd eea2 2b3d
-0.014447105 -0.06812814 -0.060635693 0.027519468 -0.03684345 -0.016223866 -0.039950863 -0.0037852
0.009470135 -0.056292042 -0.07774393 0.070577435 0.0049819946 0.08170221 0.078233495 0.083596595
-0.044183083 0.07957872 0.08673482 0.015527949 -0.04449322 0.0087161735 -0.03715509 0.05010016
0.035720155 -0.016025998 0.028491221 0.053311225 -0.022289418 -0.0073149824 0.06758279 -0.07387253
0.0064563546 0.03385351 -0.06995789 -0.0050944095 0.053896748 -0.06395244 0.06484396 0.06808537
-0.0132388305 -0.023294477 0.015348038 0.052154217 0.0157185 0.047163893 -0.002861428 0.052420717
-0.079325326 -0.08260656 -0.04328031 -0.023431793 0.018022204 0.02619201 -0.048685987 0.006755355
-0.006905584 0.09351914 0.030630331 -0.048006147 0.0021350961 -0.08393018 -0.04494749 0.05891685
-0.009284144 0.033953894 0.016369866 -0.055650815 0.08390021 0.075774364 0.094981834 0.0388631
0.026882643 -0.05139049 0.052461173 -0.015705708 -0.03941327 0.055357955 0.022753252 0.002568088
0.051731236 -0.033509087 0.006561613 -0.07264562 0.051414307 0.030299714 -0.07101943 -0.06770219
-0.09315432 -0.078637905 -0.07051976 0.06399941 -0.04866019 -0.0829753 -0.024841446 -0.05242923
0.012122745 0.044088714 0.053541746 -0.09006338 0.07148693 0.029429432 -0.063094534 0.0020474407
-0.06542059 -0.064776845 -0.0145579325 -0.09112352 -0.09579614 0.046459574 -0.03970839 0.0067275786
0.014474095 0.002204034 0.06904056 0.023024864 0.051834147 -0.07611497 0.060941067 0.0076953415
0.061795592 0.032816313 -0.037756767 0.01580285 -0.05911371 -0.042390395 -0.048962522 0.015548556
0.025004318 -0.008097629 0.051581368 0.065611936 0.0047799037 -0.004854583 -0.03821335 0.053889357
-0.00022318205 -0.036534313 -0.05793068 -0.0639867 0.053400796 -0.08090166 0.05820691 -0.06844084
0.0047639827 -0.015373515 -0.031963654 0.011912917 -0.090250574 0.013095556 0.03641745 -0.041573383
0.042685967 -0.1046464 -0.028739857 0.045568984 0.021965569 0.001776712 0.036739055 -0.010586572
-0.07839725 -0.01160352 -0.0107154185 0.0019312779 0.08003186 -0.025758905 -0.002710381 -0.015561661
-0.06388621 0.092126004 0.022295663 -0.029106677 -0.08157512 0.000503755 -0.07728239 0.07882541
0.0730573 0.00067913916 -0.016496727 -0.015810512 -0.007552596 0.0017983706 -0.075174004 -0.0649632
-0.070751935 -0.06099634 -0.10178631 0.025742326 -0.04189634 -0.07938437 -0.04378554 0.037581157
0.020168219 0.030274682 -0.0041458514 -0.06802195 -0.018643562 -0.042692654 -0.031172128 0.045456577
-0.016007807 0.09368178 -0.050541423 -0.043170348 -0.054480623 0.047689766 -0.07920127 0.055742893
0.060920198 0.023331705 0.053857837 -0.034635816 -0.03997373 -0.08608877 0.0031565013 0.014253782
-0.07182265 0.017996555 -0.05442624 0.015661385 0.003585738 -0.06538613 -0.04580617 0.048487827
0.019173874 0.040145446 0.0764774 -0.0011873525 -0.03746422 -0.054885134 -0.07512273 -0.025641592
-0.03527076 -0.041276596 0.072350234 0.0030243855 0.01370868 0.104629435 -0.03747892 -0.011593163
0.020259518 0.0099649 0.004645322 0.08999662 0.06240036 0.077639274 -0.008176215 -0.005753598
-0.07559505 -0.01836773 0.1019625 0.008016554 0.048133064 0.044966973 -0.050865393 0.04190343

bias f4 [32]
00000000: 7817 97bd c917 d1bc 00e6 b73c 84fa 69bc
00000010: e6dc 483d 7a4e 5fbd 6dae cebd 69a0 a3ba
00000020: 391f 2cbd 0cc3 f7bc c5db f73c 78b1 1e3d
00000030: 706f 9b3b 4857 57bb f933 48bd 7565 60ba
00000040: a54e 0dbd 1041 33bd 546f 9abc eadb ccbc
00000050: 4340 59bc 1157 86bd 2eec 2b3c 9cb3 32bd
00000060: 2c0f 9ebd 95dd 6abb c1d2 9cbd 46b7 e1b9
00000070: d246 573d ba12 cfbd 9faf fdbb 4788 333c
-0.07377523 -0.025524037 0.02244854 -0.014280919 0.04903879 -0.0545182 -0.10091863 -0.0012483719
-0.042021964 -0.030244373 0.030256161 0.038743466 0.004743509 -0.003285842 -0.04887769 -0.000856004
-0.03449883 -0.04376322 -0.018851914 -0.025007207 -0.01325995 -0.06559575 0.010493321 -0.04362832
-0.077177376 -0.003583764 -0.076573856 -0.00043051894 0.052557774 -0.10110994 -0.007741883 0.010957784

weight f4 [32]
00000000: 7081 643f 91f1 6e3f bd4b 6a3f c10c 683f
00000010: c20a 673f a3be 653f f867 673f 78b5 603f
00000020: 8044 633f cf6a 713f 0bc2 753f 7d09 733f
00000030: 477a 6b3f 64ce 703f f617 7e3f 20c1 663f
00000040: d18e 683f b170 6e3f afe7 5a3f 6f72 5e3f
00000050: 0f30 623f dc07 5c3f 2398 6d3f 90cd 6f3f
00000060: 8a43 693f 5c26 683f e9de 6d3f 59dc 603f
00000070: 3fab 6c3f 9972 683f ce59 733f f13f 633f
0.89260006 0.9333735 0.9152182 0.9064446 0.9025079 0.89744014 0.9039302 0.877769
0.887764 0.943036 0.9599921 0.9493635 0.91983455 0.9406493 0.9925531 0.90138435
0.9084292 0.93140703 0.8550977 0.8689336 0.8835458 0.8594949 0.9281027 0.9367304
0.9111868 0.9068353 0.9291826 0.87836224 0.924488 0.9079986 0.95058906 0.8876944

bias f4 [32]
00000000: 174c 89be f95f b4bb 38c0 583e f105 26be
00000010: 372a 863e 3ccd c73d da0d 8f3e 0c36 843e
00000020: d7eb b9bd 077c f2bd 53d8 ed3d c6bf df3d
00000030: f561 863e 83ce a3bd 562c a93e 9e34 30be
00000040: b65c bbbd 7c5c b43e 4d5e 6ebe 7bae e43d
00000050: 9d79 a83d 1394 3cbe bd76 fe3d a2ac 2e3e
00000060: a3ef 4bbe 2f0f 693e 8a18 693e 248f ba3e
00000070: 1e4a 463e d5d9 923e c992 9b3d 68bb 90be
-0.26815864 -0.005504605 0.21167076 -0.16213204 0.26204082 0.09755942 0.27940255 0.25822484
-0.09078186 -0.118400626 0.11613526 0.1092525 0.2624661 -0.07998373 0.33041638 -0.17207572
-0.091485426 0.3522681 -0.2327816 0.11166092 0.08226321 -0.18415861 0.12424991 0.17058042
-0.19915633 0.22759698 0.22763267 0.36437333 0.19364211 0.28681818 0.075963564 -0.2826798

running_mean f4 [32]
00000000: 771d ec3d 2a56 223e 0308 0b3e 5b53 df3d
00000010: a790 0a3e 963a 0e3e e26f 283e 8493 1f3e
00000020: 3d77 ec3d 5aad 003e 7110 223e 93de 283e
00000030: b4f5 003e ee34 cb3d 9157 bd3d a14a 133e
00000040: ee35 873e 97a2 253e f9fe 2c3e d986 c53d
00000050: ce55 363e 01e6 353e bfa0 e53d bb13 023e
00000060: b95a dd3d 81ca de3d 5a4e bc3d 815c d73d
00000070: 2987 323e c0a6 db3d de47 993d a200 053e
0.115290575 0.15853181 0.13577275 0.10904571 0.13531743 0.13889536 0.1644893 0.15583616
0.115461804 0.12566128 0.15826584 0.16491155 0.12593728 0.09922205 0.092452176 0.14383937
0.26408333 0.16175304 0.1689414 0.09644861 0.1780617 0.17763521 0.112123005 0.12702839
0.108083196 0.10878468 0.09194632 0.105156906 0.17434372 0.107251644 0.07484411 0.12988523

running_var f4 [32]
00000000: 54a8 b53c c82e 313d 7204 173d dd4a 053d
00000010: 8c47 273d 57cf bf3d 28a3 983d d4dd 7e3d
00000020: 7ce8 063d 98da 433d bc41 633d 42d9 4d3d
00000030: 9785 003d 6e5b eb3c 4fc6 e43c 036e 733d
00000040: 8ac2 c93d 64ab 403d c920 203d 172e 283d
00000050: 40a1 313d 903a 463d 80a0 d83c f0f7 bd3c
00000060: 7b60 ba3c 7630 d43c e18e 0d3d 67f8 3c3d
00000070: edfb 9a3d 31e6 5b3d 9be1 cd3c a62b 9f3d
0.022174992 0.043257505 0.036869474 0.0325421 0.040839717 0.09365719 0.074529946 0.06222327
0.032936558 0.04781589 0.05548261 0.05025602 0.0313774 0.02873012 0.027926592 0.059431087
0.098515585 0.04703845 0.039093766 0.04105958 0.04336667 0.048395693 0.02644372 0.023189515
0.022751084 0.025902014 0.034560088 0.046135332 0.07567582 0.053686325 0.025131991 0.07771997

weight f4 [64, 32, 3, 3]
00000000: 6521 6a3d ff30 c43c 0076 eb3c af53 9dbd
00000010: 284e fbba 6da2 7d3d ea66 16bb 35a6 00bd
00000020: 403d ac3d 37de 32bc c932 c13d ae33 913c
00000030: 7ead 483a 704e 653d 4c4d 0cbd 7975 42bb
00000040: c7d7 08bc 6510 2dbc b56c e9bc 1bf8 ac3c
00000050: 20cb 34bd 073a bcbc 56e8 01bc fc65 fe3c
00000060: 504f 42bd 2a38 fd3c 968e cd3b c712 883c
00000070: af3d 4b3d 17b3 febc 6982 8cbc c88c 333d
00000080: 0d71 cd3c 18c6 063b a296 a53c 813f 2dbd
00000090: f3c0 d2bc e048 fa3c dc79 523c 216d b4bc
000000a0: a595 1a3c 5ec1 32bd d933 4cbd 010f 2fbd
000000b0: d525 88bc 4853 53bc aafc 2a3d e167 fb3c
000000c0: 3eb3 853d 3e8b 933d c0b6 843d 9f91 243d
000000d0: 9a8f a73b 03d5 083d 48e1 97bd 4d74 94bc
000000e0: 0809 18bd ec96 a4bb d554 e8bc 6741 313d
000000f0: ea51 87bd 2f22 e53c 0523 4c3d c1c8 91bd
00000100: 62cd 383b 20d5 ba3c cbbf 2cbb 7f87 13bc
00000110: acd3 4bbd 8a01 bf3b 3eb7 9d3c 8388 593a
00000120: 1b9b 703d c699 1ebb 4e6d d1bd 2a1e 113d
00000130: 14e7 2d3c 36b7 163c 5161 753c 1c2d fe3c
00000140: 2f42 6fbd d4ed 803d 3ae0 7abd e74d 01bd
00000150: fd3a 52bc 13e8 19bc c39f 9f3d 21ef 6f3b
00000160: 847d e1bc 8584 903d c4cf 1fbd 8cfa 85bd
00000170: 8583 293d ecf5 343d 5593 9d3b cfe6 f5bc
00000180: f217 eebc 5bd0 173d 8892 f43c 2302 733b
00000190: 1425 613d 3299 a73c c433 703c b666 c23b
000001a0: 70b0 8a3b 6a3f 6abc 7c78 a9bd 0b98 193d
000001b0: 6371 b13b af89 b3bc 56a7 9d3c 6b78 a53b
000001c0: a728 263d 5ae3 913b 8fc9 893c 3e40 20bc
000001d0: 7f09 8e3c 3ce1 f4bd a1e1 83bd 2445 a4bd
000001e0: 8662 96bd db73 70bc e2b3 0ebd 4027 a3bc
000001f0: c462 71bd 09b3 92bc bef3 57bd 8900 953d
00000200: c57c 6cbd 1237 9fbd 30d4 683c a544 12bb
00000210: 332f ba3d 7ff3 423d fa2b b23c 4996 553d
00000220: 11be 443d 1508 2a3d c8b9 713c 807b 53bc
00000230: c1d6 243d e6f5 efbc f199 073d 7ca8 7e3c
00000240: 3af5 3bbd d5ae 74bc badc d73d 626a 353c
00000250: 9087 923c 3dcb 163d cb6c 4a3d 3164 89bb
00000260: 25d1 a5bc fca8 0e3c e5ff 83bd b113 a8bc
00000270: acb2 57bd 77c7 13bd ff05 663c 815d 38bb
00000280: 0962 c4bc 8701 d13c 24a9 7cbb ef9f d2bc
00000290: f2a7 18bc 944d 86bd 65ee 03bd 7ed2 5c3b
000002a0: 4bc7 bfbc 55bd 35bd ba02 453d a436 933b
000002b0: 6378 58bd e05a e53c bd0d c3ba 9f44 3fbb
000002c0: df28 94bd d8d6 243d ebde 793c 62a7 6bbb
000002d0: 0ee2 b0bb 597d bc3c 9d58 79bd e0c3 1fbd
000002e0: 3c21 49bd ad73 263d 1b32 14bd f28c efbc
000002f0: 5222 1d3d 2ab4 503d 8ac8 aa3c 74bc 233c
00000300: c8b4 ac3c 7dfe 1abc 250e d23c 9643 3c3d
00000310: b49d 7c3c a4ff 893d 8bf3 ff3c 0ee3 babd
00000320: 736d 94bd 000e d73c a451 02bc 0a8c 823c
00000330: 3277 2c3d bc01 f03c 6660 d03c 5d84 08bd
00000340: 3025 a2bc 539c ee3b a96e 573b 3515 0d3c
00000350: 4750 0ebd 7e12 823d 75a3 71bc 56f0 633d
00000360: d8bd 64bb af4a 8e3c 4fb5 dd3c fe40 053d
00000370: 6a3b 0f3c 265b 943d 9967 2d3d 5744 ee3c
00000380: d747 a9bd 2945 47bd 7f1b c0bb ad17 0bbd
00000390: 417e 5fbd 0642 3bbc 85bb 87bd aac7 0dbd
000003a0: 754a 84bc ef4c 773a 5868 9b3c 8d20 c7bb
000003b0: db02 79bd e9b8 e83b dcf9 bdbc fce4 7d3d
000003c0: b3a6 153d c8d6 9b3d 48eb f73c aba8 8dbd
000003d0: 7cc0 cf3b 9ac6 183c 43bd 7dbc 73b3 123d
000003e0: e9c6 39bd c0d3 933d 8aba 60bc 032a 2fbd
000003f0: 3cb9 38bd abb3 a3bd 0eec e43c 5647 0abb
0.057160754 0.023949144 0.02874279 -0.07681977 -0.0019173073 0.06192248 -0.0022949525 -0.031408507
0.0841012 -0.010917238 0.094335146 0.017724838 0.0007655247 0.055983007 -0.034253404 -0.002967207
-0.008352227 -0.010562991 -0.028494218 0.0211144 -0.044139028 -0.022976888 -0.007928928 0.03105449
-0.04743892 0.03091057 0.006273101 0.016610516 0.049619373 -0.031091256 -0.017152028 0.04383543
0.02507832 0.002056485 0.020213429 -0.04229689 -0.025726771 0.030552328 0.012846436 -0.022024693
0.009435092 -0.04364144 -0.049854133 -0.04273892 -0.016619602 -0.012898274 0.041744865 0.030689182
0.06528328 0.07204293 0.06480169 0.040177938 0.005113554 0.03340627 -0.07416016 -0.018121863
-0.037117988 -0.005022874 -0.028360764 0.043275263 -0.06607421 0.027970402 0.049838085 -0.07118369
0.002819859 0.022806704 -0.0026359435 -0.009004473 -0.049762413 0.005829041 0.019252416 0.0008298235
0.05874167 -0.0024200543 -0.10225926 0.035429157 0.010614175 0.009198954 0.014976815 0.03102737
-0.058412727 0.06295362 -0.061248995 -0.031568434 -0.012831447 -0.00939371 0.07794144 0.0036611038
-0.02752567 0.07056526 -0.0390165 -0.06541929 0.041385192 0.044179842 0.004808823 -0.030017285
-0.029064152 0.037063938 0.029855028 0.003708013 0.054967 0.020458791 0.014660779 0.0059326543
0.004232459 -0.014297346 -0.08274934 0.037498515 0.005415128 -0.021916239 0.019244831 0.0050497553
0.040566113 0.0044521512 0.016819743 -0.0097809415 0.017338512 -0.119570225 -0.0643952 -0.08021
-0.073430106 -0.01467606 -0.03483952 -0.019916177 -0.05893208 -0.017907636 -0.052722685 0.07275493
-0.057736177 -0.07774176 0.014210746 -0.0022318747 0.09091034 0.047595497 0.021749485 0.052145276
0.048032824 0.041511614 0.014753766 -0.012907863 0.040243868 -0.029292058 0.033105794 0.0155430995
-0.045888163 -0.014934261 0.10540147 0.011072727 0.017886907 0.036814917 0.04942016 -0.004192852
-0.02024133 0.008707281 -0.064452924 -0.020517202 -0.05266063 -0.036078896 0.0140395155 -0.0028131905
-0.023972528 0.025513424 -0.0038552964 -0.025711028 -0.009317385 -0.065577656 -0.032209773 0.00336948
-0.02341046 -0.044370014 0.048098303 0.0044925977 -0.052849185 0.027997434 -0.0014881414 -0.0029185188
-0.07234358 0.040243953 0.015250902 -0.0035957922 -0.0053980416 0.02300899 -0.060875524 -0.03900516
-0.04910396 0.04063766 -0.036180597 -0.029242013 0.03836281 0.050953068 0.020847578 0.009993661
0.021082297 -0.009460089 0.02564151 0.045962892 0.015418459 0.06738213 0.03124406 -0.091253385
-0.07247438 0.026251793 -0.007954035 0.015935916 0.04210586 0.029297702 0.025436591 -0.033329356
-0.019793123 0.007281819 0.0032872355 0.008611013 -0.034744527 0.06351183 -0.014748444 0.055649124
-0.0034903195 0.017369596 0.027063994 0.032532685 0.008742193 0.07243948 0.042335127 0.029085321
-0.082656555 -0.04864994 -0.005862653 -0.033958126 -0.054563764 -0.011429315 -0.066275634 -0.034614243
-0.016148785 0.0009433766 0.018970653 -0.0060768784 -0.06079374 0.007102121 -0.023190431 0.061985955
0.03653593 0.07609326 0.030263558 -0.069169365 0.0063400846 0.009324694 -0.015487018 0.035815667
-0.04535571 0.072181225 -0.013716349 -0.042764675 -0.04509853 -0.07993253 0.02794459 -0.0021099648

bias f4 [64]
00000000: 33fe 9bbd e9e2 c0bd 6673 e2bd 7613 06bd
00000010: 61ab 33be 6a75 b9bd 19ad 90bd 3e35 f9bd
00000020: 0d9e aebd e1d1 10be d445 35be ba6d 5dbd
00000030: e404 2bbe 89ed ddbd 128f bfbd d94d 34be
00000040: b908 02be af17 88bd 9d4c 3cbe 3117 fbbd
00000050: c430 1ebe c09b fcbd 179b abbd 9d12 d2bd
00000060: c6a3 7cbe 332a e5bd 0b00 b0bd 0034 03be
00000070: fec7 17be e2dc 09be bfa8 cdbd 07c6 0bbe
00000080: e482 c8bd 2c9b 10be e8d2 b6bd e70d e6bd
00000090: ebe6 d4bd 3325 16be a72b 0dbe 69b5 19be
000000a0: 7ebf d0bd e805 0fbe 9b4f 14be c536 0abe
000000b0: bbed d2bd 8cf0 1ebe a6d9 b0bd 790d d1bd
000000c0: 8be3 fbbd 53f6 d0bd e558 1cbe 5890 9abd
000000d0: e9e1 24be c74e 00be 81b1 26bd fe48 e6bd
000000e0: fad3 41bd fcb4 20be 3591 bebd ff3d b9bd
000000f0: b46e e9bd 90a2 0abe d116 41be d109 01be
-0.07616844 -0.0941828 -0.11057167 -0.032733403 -0.17545845 -0.09055598 -0.07064266 -0.12168358
-0.085262395 -0.14142562 -0.17702419 -0.05405972 -0.16701084 -0.10836322 -0.0935346 -0.17607822
-0.1269864 -0.06645142 -0.183886 -0.12260283 -0.1544829 -0.123343945 -0.083791904 -0.102574565
-0.2467185 -0.111896895 -0.08593758 -0.12812805 -0.14822385 -0.13463166 -0.100419514 -0.1364976
-0.097905904 -0.14121693 -0.08926946 -0.112331204 -0.103956066 -0.14662628 -0.13786183 -0.15010609
-0.10192774 -0.13967097 -0.14483492 -0.13497455 -0.1029925 -0.15521449 -0.08635263 -0.10207648
-0.1229926 -0.102032326 -0.15268286 -0.07547063 -0.16101803 -0.12530051 -0.040696625 -0.11244391
-0.047321297 -0.1569404 -0.0930504 -0.09045028 -0.11398068 -0.13538575 -0.1885636 -0.12601401

weight f4 [64]
00000000: 2035 a13f 7afc 9e3f 4c87 963f b825 9a3f
00000010: 9740 9d3f cece 8f3f 0071 993f 3b90 9a3f
00000020: e2dc 9b3f 187f 9d3f acaa a53f 0290 9b3f
00000030: 2e28 a03f 3678 9d3f 602a 9c3f 95e3 9f3f
00000040: f59d 9a3f 8615 a23f 3f29 9f3f cb72 963f
00000050: d45e a03f adb8 9d3f d994 943f 3ceb 993f
00000060: f7d3 983f eec2 9e3f 609c 9f3f b863 9b3f
00000070: 4f48 943f 3df6 a33f d017 a03f 5de3 9e3f
00000080: 56d6 933f 42a5 a53f c86c 993f 960d 9a3f
00000090: 789b 9c3f 4d70 953f 7fb6 9b3f 92f6 9d3f
000000a0: e92d a33f 7cdb 9d3f 6ba2 a33f 32a2 a83f
000000b0: f538 a93f 1355 9f3f 9c4b 9e3f 2a91 973f
000000c0: a3a8 8f3f 71d4 a33f 5abe 953f a3a3 963f
000000d0: 5de7 9e3f f4de 8f3f a0ad 963f 9ad9 933f
000000e0: b4c7 963f 45b1 9d3f 6d97 963f f9f9 963f
000000f0: 6a87 a03f 8274 ab3f f6a1 a03f cc9e 943f
1.2594337 1.24208 1.1760039 1.2042761 1.2285336 1.1234987 1.198761 1.2075266
1.2176783 1.2304411 1.294271 1.2153323 1.2512262 1.230231 1.2200432 1.2491328
1.2079455 1.2662818 1.2434462 1.1753782 1.2528939 1.2321984 1.1607925 1.2024913
1.1939687 1.2403238 1.2469597 1.2139807 1.1584567 1.2809521 1.2507267 1.2413136
1.1549785 1.2941058 1.1986322 1.2035396 1.2234945 1.1674896 1.2165068 1.2340872
1.2748386 1.2332606 1.2783941 1.3174498 1.3220507 1.2447838 1.2366824 1.1841176
1.1223339 1.2799207 1.1698716 1.1768688 1.2414356 1.1239915 1.1771736 1.1550782
1.1779695 1.2319723 1.1764961 1.1795036 1.2541325 1.339493 1.2549427 1.1610961

bias f4 [64]
00000000: df43 d9bd 7e79 55bd eadb 76bd 3558 d1bc
00000010: 59ae e9bc f59f e6bd 54c7 8dbd 564a 6abd
00000020: fa1d 66bb e37f c0bc 8450 dabb 9bd9 94bd
00000030: 9aa4 b2bc 9ab2 19bd 073a 8bbc d32f 65bd
00000040: fa1e 85bd 397c 8ebd 27e5 6dbd 6af3 86bd
00000050: 7f95 65bd a83b b5bd fcce d23b 510f 8bbd
00000060: a277 bcbc 3a35 aabc 32c6 ecbc a34f 853c
00000070: fc5e 80bd de78 ddbc 7c20 4dbd 0e08 453b
00000080: 9fe4 1ebd c001 9abc 9503 793c 0194 eabc
00000090: acf0 08bd 93d3 0dbd 4e08 47bd e031 4bbb
000000a0: d2f3 9abd 03b4 d7bc a575 66bd 546a 06bd
000000b0: aa7a 16bd ec4b cdbc 2310 97bc e94c acbd
000000c0: 27a5 44bd c269 82bb 8f97 8e3b b46b 5fbd
000000d0: bbbf 5ebd db9f 53bd 1e1a 08bd e270 a83c
000000e0: f631 96bd 3a82 8fbd be8f 9bbc 114d 68bd
000000f0: 06be 64bd 1c78 47bd c523 17bd 41f6 a0bd
-0.106086485 -0.052117817 -0.06026832 -0.025554756 -0.028525518 -0.11260978 -0.069227844 -0.0571998
-0.0035113082 -0.023498481 -0.0066624302 -0.072680674 -0.021807004 -0.037523843 -0.016995443 -0.05595381
-0.06500049 -0.06957287 -0.058079865 -0.06589396 -0.056050774 -0.08849269 0.006433366 -0.06790031
-0.023006264 -0.020777334 -0.0289031 0.016273325 -0.06268117 -0.027035173 -0.050079808 0.0030064615
-0.03879225 -0.018799663 0.015198608 -0.028635027 -0.033432648 -0.0346256 -0.048591904 -0.003100507
-0.07566036 -0.026330953 -0.05626454 -0.032816246 -0.036738075 -0.025060616 -0.018440312 -0.08413107
-0.048009064 -0.0039798925 0.0043515633 -0.054546073 -0.054382067 -0.051666122 -0.033228032 0.02056164
-0.07333748 -0.070072606 -0.01898944 -0.05671412 -0.055845283 -0.04869853 -0.036899347 -0.07859469

running_mean f4 [64]
00000000: 54b3 c13d 0996 9a3d 0263 ba3d 028f cb3d
00000010: d3a7 893d 2a3f 0a3e c7d8 ad3d 3993 b63d
00000020: f2fc e03d f286 de3d 4258 d53d bc74 fd3d
00000030: 9530 ba3d 7940 c83d 0fab ae3d eea4 7f3d
00000040: 3f67 993d b91f bf3d 42ca d73d 83fe 963d
00000050: ec7f a13d 1cfc b53d 54c2 e53d 6ca3 853d
00000060: f265 ac3a f8d3 f43d ae85 4a3d e5d5 133e
00000070: 3e60 163e 061c ac3d 9b32 b13d 7e02 883d
00000080: 5792 ca3d b274 353d 18ac 2d3d 974c 783d
00000090: 3550 ff3c d432 503d fbba bc3d 8715 b63d
000000a0: aad8 fa3d 40c0 eb3d a7e3 1c3e 2f7b 9b3d
000000b0: cf8b ca3d 2679 c83d 96ac ce3d abd8 bd3d
000000c0: 5e07 1e3d f4b0 8b3d 4c4b 4b3d bcfd 1e3d
000000d0: 642d a23d c4d7 5e3d 9095 c13d 0649 fd3d
000000e0: 6df0 b13d 5213 043e 80af 7b3d 8ce5 e43d
000000f0: 8c23 933d b1d6 a53d e60d cf3d fa50 af3d
0.09458032 0.07548148 0.091009155 0.09939386 0.06721463 0.13500658 0.084886126 0.08914799
0.109857455 0.108655825 0.104172245 0.12375781 0.090912975 0.09777922 0.085287206 0.06241315
0.07490396 0.093322225 0.105366245 0.07372763 0.07885727 0.08885977 0.11218706 0.06525311
0.0013152941 0.11954492 0.049443893 0.14437063 0.14685151 0.084037825 0.0865223 0.066411
0.09891193 0.044300742 0.04240045 0.060619917 0.031166175 0.050829723 0.09215351 0.08890825
0.12248357 0.11511278 0.15321217 0.07591855 0.098899476 0.09788732 0.10091512 0.09269842
0.038581245 0.068208605 0.049632356 0.0388162 0.07918814 0.05440499 0.09452355 0.12367444
0.08688436 0.12897995 0.061446667 0.11176595 0.071845144 0.0809759 0.10110073 0.08560367

running_var f4 [64]
00000000: 2ccc 513d 2c1e 7f3d c97f 993d 5c88 4f3d
00000010: 84aa 233d d7c2 e43d 3d50 853d 47c2 9c3d
00000020: 73c0 6f3d 3efa b73d 522c ac3d ea5a ad3d
00000030: 97d7 7c3d 5eba 7b3d 0deb 603d 23e4 2f3d
00000040: 1732 223d 057c 7c3d f27d a13d c698 273d
00000050: 4311 703d b14d 863d c9be 963d d027 183d
00000060: d004 303a 2e97 9d3d 37ea dc3c 5ab1 933d
00000070: a57f 1c3e c363 3f3d 0ecd 443d 2e07 183d
00000080: 1990 953d 2784 e53c e909 983c 1545 2c3d
00000090: ccbe 613c 0684 103d 4b3f 803d 0a8e 6a3d
000000a0: d907 c13d 2837 ad3d 6ea6 1b3e e801 533d
000000b0: 11d8 873d 1a88 873d 152b 8e3d 33d1 8b3d
000000c0: 30b2 c73c 9b1a 433d 8192 063d 373e a83c
000000d0: caec 223d 26a3 103d cb5b 883d e9af 903d
000000e0: 4583 253d b782 e23d 4a2e ed3c f0b6 9f3d
000000f0: 0724 1e3d c2ce 603d 05ab 783d 4a84 813d
0.051220104 0.062284634 0.07495076 0.05066715 0.03995754 0.11169975 0.06509445 0.07654243
0.058533143 0.08983277 0.08406891 0.08464606 0.06172904 0.06145703 0.054911662 0.042942178
0.03959855 0.06164171 0.0788535 0.04091718 0.058610212 0.06557787 0.07360608 0.037147343
0.00067145843 0.07694851 0.026967151 0.072115615 0.15283068 0.046726 0.048047118 0.037116222
0.07302875 0.028017117 0.018559413 0.04205807 0.0137784 0.035282157 0.06262072 0.057264365
0.09425325 0.08457786 0.15200207 0.05151549 0.06633008 0.06617756 0.06941811 0.06827011
0.024376959 0.047632795 0.03285456 0.020537479 0.0397766 0.03531184 0.06658133 0.07064802
0.04040839 0.11060088 0.028952736 0.077985644 0.038608577 0.05488468 0.060709972 0.0632406

weight f4 [256, 256]
00000000: 6bc8 c5bc 4f84 80bc 14d3 0dbe 80aa 54bd
00000010: bec5 95bc 337e d63c 5bb2 18bb b31a ac3c
00000020: 6596 d4bd c07a 383d 7218 50bd 2179 d43c
00000030: af61 c3bc 43dc 6e3c ebce ecbb 64cd abbd
00000040: 3585 18bd f4c3 a6bc 5ec0 02be 89b7 7c3d
00000050: 5284 113d d4f5 27bd 427f 24bd 427a 87bc
00000060: 7414 c8bb 9a4a bf3c 0fd0 9abc 6a9c 013d
00000070: db82 05bd 81c5 d03c 6ca8 63b9 8c08 e5bd
00000080: dae0 d43d d1ad b83c dd52 ba3c c84d a1b9
00000090: 2934 32bd 9942 b7bd fd4f 7bbd 3574 0e3d
000000a0: a721 ad3d 48e1 913d 7658 013d 246d 813d
000000b0: 1f1f 0ebd a565 453c 5543 1cbd 893b 72bd
000000c0: 690d cc3c c9f8 d03d ddbb 943d 3600 353d
000000d0: e6d8 693d 3861 41bc fe17 0f3d 5278 b8bc
000000e0: eea7 0a3e a582 a2bd d569 fcbc e64e ccbc
000000f0: 00d4 28bd 78fa 4d3d da5a 0b3d 7979 dabc
00000100: 8f16 45bd a2cb 9c3d f07c 7abd bde7 9c3d
00000110: 7175 43bb deb4 843d 4436 0dbe d15b 933d
00000120: d319 ac3d f16a 80bc 93ef e43c 5018 8ebd
00000130: 83f4 383d 2496 69bd 5e50 8c3a 20f5 e53c
00000140: 483f bcbc 0fee 04bb 9f8f d2bc 9b12 2bbd
00000150: 981e b2bd dd60 7abc fea6 8cbc 8f2a 9cba
00000160: 6d9f b83c 8db2 093e e074 dcbc 0ec4 8d3d
00000170: 0328 00bd f93f 693b db0d 0cbb c174 c9bb
00000180: 3e4b c4ba f289 fbbb 9405 ddbc bdc1 b6bd
00000190: 4e22 a0bc 62b3 9bbc 797c db3c 13c2 50bc
000001a0: bbe2 18be 9aa3 9bbd 237b 64bd 8f4d ffbc
000001b0: 2424 a13d 236a 363d ed71 ed3c dd04 c33d
000001c0: 92a7 fcbc 380a a53c abd1 1dbd 0fe0 253b
000001d0: 9b8d 2f3d c46a 4c3d 9fbb b0ba 4c26 1c3d
000001e0: 6195 8fbd c15c 313a b87f 89bd 89cd 223b
000001f0: fbed 1bbc bca0 da3d 6f1f 70bc f3a1 f43c
00000200: ce09 29be dd77 053b 0d26 b3bd f87e ac3c
00000210: 3149 ac3d 36c5 ad3c e005 c93c e73d 80bd
00000220: 6a7c a43d cf1a 643d 6bd1 7f3c 4c8a b43c
00000230: 391e c0bc 5b2d 8abd 497f 1d3d 0f2b a53d
00000240: 4387 d5bd 1934 283c 4fa6 82bd 733c 7a3c
00000250: 6ea6 8a3d 729a 11bc 773e 383d 6db9 55bc
00000260: f801 61bd 3291 bfbd 0144 90bc 4b8e acbd
00000270: f358 953d 4bb5 5bbd 3adf eebc 28ba d1bd
00000280: d905 c7bd c4ad 7abd a903 7c3d 1ab7 b5bc
00000290: a06c 203c b98c 0c3d 36ba 213d 24ce 933d
000002a0: b693 39bd f993 513c b5c8 4dbc 97b7 d0bb
000002b0: 42c5 9dbd 8c72 953c 150b d13c 9a1c b8bd
000002c0: 854a b03d f63b 393d 5836 eb3a f018 a03a
000002d0: 7b56 e63d 66b6 493d b6b4 cfbc fa44 153d
000002e0: ae70 05bc cfae c1bc 7760 2c3d 6008 9cbd
000002f0: df31 cbbc 1dcd 013a e8f8 9abd 028b 28bd
00000300: 421a 7f3c c8b0 a2bd 5dd7 bebb 8a8f 8e3d
00000310: c3ce cd3b 3ecd 1e3d 01ae adbb 0e1c d6bb
00000320: e2da ee3b 75dc 26bd 092c c33c e5c9 fdbc
00000330: f04c a2bc 07a5 ecbc 5719 9d3d fd51 293c
00000340: 5314 103b 4120 89bd 401b 183d bcac 483c
00000350: c3be 35bd e719 4a3d 9d92 abbb 63bd 303d
00000360: bd7f 9d3b 8e62 4a3d efff 673b d3af 8e3b
00000370: ffcc a43c e3be 823d 0652 a83d 50db a53d
00000380: 6a19 ed3c 4eba c53d 7f3b 8fbd b45a 073d
00000390: 4c2d cd3b 66bc 96bd 0214 ac3b 5d20 053b
000003a0: 3fbb e23d ddd0 f73c 91db 54bc 064b 853c
000003b0: b4f1 b5bd 6391 893c a13a 0dbc 37e2 583d
000003c0: 1bf1 55bd 99db 5b3d 7faf d3bd f98b 85bd
000003d0: 9359 64bc 4f10 c23d 736b 7f3d a6dc a43c
000003e0: 2582 393d 192e f1bc 01e9 c4bd feb0 1abd
000003f0: 1529 29be 7494 5fbd d1b3 8c3c 62b6 35bd
-0.024143418 -0.01568809 -0.13850051 -0.051920414 -0.018282767 0.026183223 -0.0023299668 0.021008825
-0.10380248 0.04503894 -0.050804563 0.025936665 -0.02385029 0.014578882 -0.007226815 -0.083887845
-0.03723641 -0.02035711 -0.12768695 0.06169847 0.03552658 -0.041005924 -0.040160425 -0.01653779
-0.006105954 0.023351002 -0.018898038 0.03164331 -0.032595497 0.025484802 -0.00021711149 -0.11183271
0.103944495 0.02254382 0.02274459 -0.00030766265 -0.043506775 -0.08948249 -0.06135558 0.034778792
0.08453684 0.07123047 0.031578504 0.06319645 -0.03469765 0.01204816 -0.03815015 -0.05913881
0.024908738 0.10203702 0.072623946 0.044189654 0.057091616 -0.011802964 0.03493499 -0.02251831
0.13540623 -0.07935075 -0.030812183 -0.024939965 -0.041217804 0.050287694 0.03402219 -0.02666925
-0.048117217 0.076560274 -0.061154306 0.07661388 -0.002982464 0.0647981 -0.13790232 0.07195247
0.08403363 -0.015675994 0.02794627 -0.06938231 0.04515506 -0.05702795 0.0010705104 0.028070986
-0.022979394 -0.0020283496 -0.02570325 -0.04176579 -0.086972415 -0.015281883 -0.017169472 -0.0011914539
0.022536958 0.13447018 -0.0269112 0.0692216 -0.03128816 0.003559111 -0.0021370563 -0.0061479514
-0.0014976037 -0.0076763565 -0.026980199 -0.089236714 -0.019547608 -0.019006435 0.026792752 -0.012741583
-0.14930241 -0.07599564 -0.055781495 -0.031164913 0.078682214 0.044534814 0.028984988 0.09522412
-0.030841623 0.020146474 -0.038530033 0.0025310551 0.042859655 0.049906507 -0.001348365 0.03812246
-0.07010914 0.00067658356 -0.067138135 0.0024841747 -0.009517188 0.10675189 -0.014655932 0.02986238
-0.16507646 0.0020365634 -0.08747492 0.021056637 0.08412398 0.021212202 0.024538934 -0.06261807
0.080315426 0.05568963 0.015613894 0.022038601 -0.023451911 -0.06746932 0.038451467 0.080648534
-0.1042619 0.010266327 -0.06379377 0.015273201 0.06770025 -0.00888692 0.044981446 -0.013044697
-0.05493352 -0.09353866 -0.017610552 -0.08425578 0.07292356 -0.05363969 -0.029159177 -0.102405846
-0.09717912 -0.061200872 0.061526928 -0.022182036 0.009791523 0.03431389 0.039484225 0.072170526
-0.045306884 0.012791627 -0.012560059 -0.006369542 -0.077036396 0.018243097 0.02551798 -0.0898983
0.086079635 0.0452232 0.0017945273 0.0012214463 0.112469636 0.049246214 -0.025354724 0.036442734
-0.008144541 -0.023642926 0.042084184 -0.07618785 -0.024804054 0.0004951524 -0.07567006 -0.041148193
0.015570225 -0.079438746 -0.005824013 0.06960972 0.0062807514 0.038769953 -0.005300284 -0.006534106
0.0072892765 -0.040737588 0.023824709 -0.03098006 -0.019812077 -0.028887285 0.07670849 0.010334489
0.002198477 -0.06695605 0.037135363 0.012248214 -0.044371378 0.04934111 -0.0052359835 0.043149363
0.0048064874 0.049410395 0.003540035 0.004354456 0.020117281 0.06384065 0.0821877 0.08098471
0.028942782 0.096546754 -0.0699377 0.033045486 0.0062615033 -0.07360153 0.0052514086 0.002031348
0.110708706 0.030250961 -0.012991802 0.016271126 -0.08883992 0.016792959 -0.008619935 0.05295011
-0.05223189 0.05367622 -0.103362076 -0.06520838 -0.013937372 0.09475767 0.06235833 0.020124745
0.04529013 -0.029440926 -0.096147545 -0.03776645 -0.16519578 -0.054584935 0.017175587 -0.044363387

bias f4 [256]
00000000: 2713 18bc 2436 603d 242c debc a1da 05bc
00000010: 2c27 293b deff 0c3d 516b c53c c5d9 22bd
00000020: 1585 843d 1777 903d caf1 643d 61d7 923d
00000030: 01a1 5e3b 4c72 bb3b ff33 1d3d 97e9 2b3d
00000040: 57d7 1a3d 355d 1abd 8ddb aebc 6529 8e3d
00000050: 1aa3 cc3c 0ae5 cb3c 9bf2 013e ed9f 463d
00000060: 980d 45bd cc7b 633c b725 b6bd 28b3 9c3d
00000070: b526 05bc 275b 4d3d 08fc 9fbd cc3a ef3b
00000080: 154f 863d 1cde b53b bc0d 1a3d ad85 093d
00000090: 57a7 31bd cdd6 293d aa28 1bbd 7cc2 4e3b
000000a0: ca86 303d 8a12 3d3d 62f6 413d 6db9 343d
000000b0: 2763 b13d 61b8 f63c 8268 43bd b956 b2b9
000000c0: 65e3 633d c087 7f3c 7d3e 85bd 9bb4 15bd
000000d0: af59 52bc a82a 2dbd c198 46bd 11cd c53c
000000e0: 18ac a93c 0a6c 5abc 4a2a 863d 339d 1b3c
000000f0: 13b6 96bc 4065 fc3c 070f 23bd d7d3 8bbc
00000100: 184b 21bc cd88 ad3d 7c3f 463d 59f2 8c3c
00000110: 312e 2f3d dd83 9e3c 836a 37bd 8e7a ee3b
00000120: c18b 91bc 8f20 463d d49f 093d 3f54 1e3d
00000130: 5197 a03c dc26 8dbc 6a7f 5e3c fac8 7b3c
00000140: 7687 f8bc 6c1b 363b f954 253d 9ae9 a93c
00000150: df93 d6bc 4b6c da3d b700 3abd 27c4 89bc
00000160: ae4f 84bc c459 683d fe06 9ebd 8215 bc3c
00000170: 2996 803d 6a30 66bd f3fb ab3c 22bc 1e3d
00000180: bde9 663d 080f 3e3d b761 02bd a84c 913c
00000190: 61c8 253d b022 75bc b710 443c ae3d 933c
000001a0: 0766 e43c 1c3e 8dbd 3b10 66ba e998 bbbc
000001b0: 7d7f b3bc 195e 2e3d 43b5 9dbd 949f c73c
000001c0: 4da6 c63d 5ed4 853c a54e 9ebb f02e f8ba
000001d0: cabf 44bd beb7 cfbc d71c 43bd 3865 84bd
000001e0: d9c7 59bc 539f 753d 3d43 723d f2af 1b3d
000001f0: 82ad 99bb 626b 563d 7f8d 8bbd 1ff3 953d
00000200: a92b b2ba 0c5c b03d 34f4 1ebd 9781 0b3c
00000210: bf62 0cbc 74e5 a73d f512 0a3d 643f 87bd
00000220: d06f 0bbd 5d22 533d 80b9 50bc dc19 d13b
00000230: 49a5 1dbd 347a 6d3d e4ef ff3b 95c6 cabb
00000240: 6fbc 0d3d b0bc 9f3b 0a63 a23d acc7 43bc
00000250: 7803 f2bb 2676 b63d 2524 c2bc 5434 923a
00000260: db74 cebb 41d1 133d 6e3e ae3c 4c46 f13b
00000270: 12e1 793c 5cab c4bb 6427 133d 5ce6 973c
00000280: 295e 0ebd 88a1 273d 1b34 9d3c 2608 823d
00000290: 5cc5 073c 6688 f4bb 5681 8bbd 7174 debb
000002a0: 4e26 cfbb 3525 c43c 403e fc3c dd6a bebc
000002b0: 0708 eebc 2143 d63d dac5 b63d de2e 62bb
000002c0: d76b 263d f7dd 48bd abbc cbbb 70fc 5d3d
000002d0: 0223 e5bc ecbd d43c 56c4 03bd 5a81 5bbc
000002e0: 463c 9b3d 906d 453d 3b02 46bd 557f 07bc
000002f0: 9935 edbc b1c3 c43b fd55 c53d e98d 533d
00000300: 24da e1bc 97fd ee3c f36b 3dbd e596 1a3c
00000310: db5b 4f3b a8e6 72bb eca9 a03d 912e 07bd
00000320: cc09 81bc e436 7b3a 8e52 93bd ea91 1a3c
00000330: b118 eabc c661 fa3c 5a3e 473c 5e7c 64bd
00000340: c697 b53d 9c5c e23c bbf4 94bd 94bd 5d3d
00000350: db21 4cbb 1216 17bd 846f f1bb e0bc 013c
00000360: 1806 583d 4e96 a5bb 7c5f d9bc 26d4 893c
00000370: 5106 b43c 6f9a 65bd 3c9f 92ba b4c3 f03c
00000380: 7965 c23b 0ac8 893c 48c7 93bc 143b 3c3d
00000390: c7a2 383d a074 033d fcae e43c 1581 b5bb
000003a0: 02b7 c93d 81f3 1e3d b8c1 213d 58f4 efbc
000003b0: 3ed8 493d 8722 783d 1db2 26bd 4727 59bc
000003c0: 84f4 e63c 062b 813d 1ce8 8dbb a41b 663d
000003d0: 5df1 223d 8996 233d e30a 613d 3aad 043d
000003e0: f561 dbbc b267 3abd bf1d 523d d5d0 1f3d
000003f0: 0e33 263c 3e0a 633d 2a75 5cbd 4a84 ae3d
-0.00928191 0.054739133 -0.027120657 -0.008169801 0.0025810702 0.0344237 0.024099024 -0.039758462
0.06470696 0.070539646 0.05589465 0.071699865 0.0033970478 0.0057204124 0.038379665 0.041970816
0.03780302 -0.037686545 -0.021344924 0.06941489 0.024980117 0.024889488 0.12690203 0.04849236
-0.048108667 0.013884496 -0.08893912 0.07651359 -0.008126904 0.050135758 -0.07811743 0.0073007103
0.065580525 0.005550159 0.037610754 0.03357475 -0.04337248 0.041464616 -0.037880577 0.0031549027
0.043097295 0.04616026 0.04735411 0.04412215 0.0866149 0.030117216 -0.04770709 -0.0003401542
0.055636782 0.01559633 -0.06506059 -0.036549192 -0.012838765 -0.04227701 -0.04848552 0.024145635
0.020711944 -0.013331423 0.06551035 0.009497928 -0.018397367 0.030809999 -0.039809253 -0.017068787
-0.009844564 0.08473358 0.048400387 0.017205404 0.04276866 0.019349987 -0.044779312 0.0072777933
-0.017766835 0.048370894 0.03359969 0.038654562 0.019603403 -0.017230444 0.013580183 0.015367741
-0.03033803 0.002778734 0.04036424 0.020741273 -0.026193557 0.106651865 -0.045410838 -0.016817166
-0.016151275 0.056726232 -0.077161774 0.022959474 0.06278641 -0.056198515 0.020994162 0.038753636
0.056375254 0.046401054 -0.03183147 0.017736748 0.0404743 -0.014961883 0.011966876 0.017973747
0.027880682 -0.06896612 -0.0008776222 -0.022900062 -0.021911377 0.042570207 -0.077005886 0.024368085
0.09699688 0.016336616 -0.0048311525 -0.0018934887 -0.048034467 -0.02535617 -0.047634926 -0.064646184
-0.013292276 0.059966397 0.059146155 0.03800959 -0.004689873 0.052348502 -0.068140976 0.07321762
-0.0013593334 0.086113065 -0.03880711 0.008514783 -0.008568465 0.081980616 0.033709485 -0.06603888
-0.03404218 0.051546443 -0.012739539 0.0063812565 -0.038487706 0.05797787 0.0078105796 -0.0061882236
0.034603532 0.004874788 0.079290465 -0.011949461 -0.0073856674 0.08909254 -0.023698876 0.0011154511
-0.0063005514 0.036088232 0.021270003 0.0073631164 0.015251415 -0.006001873 0.035926238 0.018542461
-0.034757767 0.040925533 0.019189885 0.063492104 0.0082868 -0.007462549 -0.06811778 -0.0067887832
-0.006321705 0.023943523 0.030791402 -0.023244316 -0.029056562 0.104620226 0.08924456 -0.0034512798
0.040630188 -0.049039807 -0.0062175593 0.05419582 -0.027970795 0.025969468 -0.032169662 -0.013397539
0.075798556 0.04820019 -0.04834197 -0.008270104 -0.028956221 0.0060047735 0.096355416 0.051649008
-0.027569838 0.029173655 -0.046245527 0.00943539 0.0031640443 -0.0037063751 0.0784491 -0.033003394
-0.015751742 0.00095830695 -0.071934804 0.009434203 -0.028576227 0.0305642 0.012160862 -0.05578267
0.08866839 0.02763205 -0.07273241 0.054135874 -0.003114811 -0.036886282 -0.00736803 0.007918566
0.052740186 -0.005053318 -0.026534788 0.016824793 0.021975668 -0.056055482 -0.0011186372 0.029390194
0.0059325066 0.016819019 -0.01803936 0.04595478 0.04507711 0.032093644 0.02791547 -0.0055390694
0.09849359 0.038806442 0.039491385 -0.029291317 0.04927849 0.060579803 -0.040697206 -0.013253993
0.028192766 0.06307034 -0.004330648 0.056178704 0.039780963 0.039938483 0.054942023 0.032391764
-0.026780108 -0.045509048 0.0512979 0.039017517 0.010144008 0.05542969 -0.053822674 0.08521326

weight f4 [62, 256]
00000000: ad96 953c 8a7b 793a c6b0 adbd 0600 93bc
00000010: 10e0 3dbe 80a6 0b3d df53 04be df76 cf3d
00000020: fddb d93c de09 35be 9e61 923d 2271 963c
00000030: 9036 1f3d 6bbd 6a3d 3c25 02be a3e5 473d
00000040: 1997 ebbd b97f 763c 1019 14be b208 e4bd
00000050: 0f49 20be 0f14 033d a142 d93d 343a 4d3d
00000060: 1afe 0dbe 2407 443c bd1d e9bb 732e 0bbd
00000070: 3644 c5bd 8320 21be 89a4 afbd 4bae 1abd
00000080: 3ecf 543d dc63 433d 6445 71bd a2ea 4e3d
00000090: d5bd 8b3d c044 10be 9420 32be 2399 43be
000000a0: e83e 8b3d 7930 19be 6170 e2bc 97b7 53be
000000b0: 0028 0a3c d9f2 5ebe 6959 bd3c 018a 14bd
000000c0: 2065 12bd b1d2 3d3c 7ba1 f8bc 716c ecbc
000000d0: ca4c 99bc b7c9 dbbd 0a9f 4a3d 1252 6c3d
000000e0: cbee 29bd 0e54 103d c7dd 50bd b0ce 37bc
000000f0: 3991 3fbe c7de fbbc 5e3d 0dbd 96f8 b0bd
00000100: d009 3bbc 56e7 17be 1488 63bd caca 0a3d
00000110: 893a 11bd 3a6b 663c df3b 3cbc 7201 adbd
00000120: 3a8b 27be 27e0 fa3c 8953 e73c 3eca 4cbd
00000130: 8478 f63c 4464 953c aee2 a5bd a902 3abe
00000140: 9c0a 31bd 1d85 aabd 4e6b afbd 13ab e1bc
00000150: 4aba 97bd 7431 2bbf 9d9e aabe ee58 5dbe
00000160: f27b 1abe a718 32be 4330 133d 4441 9a3d
00000170: ed7e 4fbe 72a4 6c3d 8618 8a3c 03d5 9cbe
00000180: e5f6 3f3d c3c2 c13c 2c0d 8b3c 746b 1a3d
00000190: 3fc1 b03c 9777 c0bd 5f00 143d d2d3 ac3c
000001a0: 1bbe 6f3d 0aca ae3c e604 ec3c 0a7c 63bd
000001b0: 9f43 bd3c eb0d 6abd fe7e ad3d 531e b1bd
000001c0: 3fd6 d8be c40a fbbd a4b9 be3c efd1 fa3c
000001d0: 4ad2 943c e695 a23d 9399 4e3d 8dea 153d
000001e0: cf26 33be 450c 253d 8f1a b2be d1e7 20bd
000001f0: 2b2d 12be 0104 603d 6da5 04bc ac6d f2bd
00000200: efb0 f9bd b0ab 6cbd a9a8 003c 0897 26bd
00000210: ae14 15bd f1ec 643d 6a0e 31bc b2a0 7d3d
00000220: fb02 12bd 51fd cabd f209 84bd 9f9a 863d
00000230: 7c70 c0bd b54f 58be 2a86 033d ea40 a6bc
00000240: bf5c 0ebe bef3 b5bd 5354 eebd 6365 923d
00000250: 4264 bcbc 0cf3 4ebd 918f c63c 9b65 453c
00000260: c366 fcbd 9840 18be 0732 613d 157e a4bd
00000270: 2f25 613d 5c9e 563c ee2e 7e3c 2559 3a3d
00000280: 6fd2 053d 13ac f23c 87dc 47be e53e d7bd
00000290: 8e11 91bd b202 57be 1641 323d 8b33 e0bd
000002a0: 2535 43bd 4816 1a3c 54f0 a9bc fc99 8b3b
000002b0: de92 d6bd 232c 1f3d 2431 79bd 9b9e 9d3d
000002c0: f5dd 4bbe 7d76 4dbd dad8 9c3c 46f6 a5bd
000002d0: 9004 613d 36c7 f83c 1a31 7e3d d39d 993d
000002e0: 71d6 8d3d 7cd2 0bbe 1568 ec3c db02 b7bd
000002f0: f982 a7bd 6f3d 773c 096f 6ebc 5184 4d3d
00000300: 0c70 9ebd e522 dfbd 7c10 5b3d 0d3f c0bd
00000310: 7851 67be 9982 76be dc13 ebbd 7b0f 753d
00000320: 9b1a 823d 84ef 103d 20df 5e3a c616 48be
00000330: d27c 943c 920b 52bd 2758 0d3d a3de 99bd
00000340: 908d cabd cfa9 5cbe ce9b 07be 060a 4ebd
00000350: 2604 043b 75ff 0ebe 2e64 513d 4355 99bd
00000360: f582 a9bc 3321 643c 96d3 02bc 8481 02be
00000370: e2fb 6bbd 5341 2ebe b914 ee3b 5bed 4bbe
00000380: aff5 45be f801 6ebe 9a81 153d 31fb d43c
00000390: 588f ee3b aba5 753c cb82 c7bc a804 b4bc
000003a0: 7a02 26be 6753 39be f46b b1bd d248 cbbc
000003b0: d2e3 fa3c 3b30 52be 5e98 6bbd 9e49 953d
000003c0: c514 e1bd 35db a2bd 360b 04be 005a e2bd
000003d0: e9da cf3c 1a17 0bbe 17cc 943d 03d1 b43d
000003e0: b33a 04bd aa7d bc3c 2a93 98bd 9eab c3bd
000003f0: 17b1 a83c 362d 3fbe 3c29 0e3d 52ad 923d
0.018260324 0.0009517005 -0.084809825 -0.017944347 -0.18542504 0.034094334 -0.1292262 0.10130095
0.026594156 -0.17679545 0.07147525 0.018364493 0.038870394 0.05730955 -0.12709516 0.048802983
-0.11503429 0.0150451 -0.14462686 -0.11134471 -0.1565287 0.03200155 0.106084116 0.050104335
-0.13866463 0.011964593 -0.007114141 -0.033979844 -0.09632151 -0.15735058 -0.085763045 -0.037763875
0.051955454 0.047702655 -0.058904067 0.050516732 0.06823317 -0.14088726 -0.1739524 -0.19101386
0.06799108 -0.14959897 -0.027641477 -0.20675503 0.008432388 -0.21772327 0.023113923 -0.036264423
-0.03574097 0.011585877 -0.030350437 -0.028860303 -0.018713374 -0.107318334 0.049468078 0.057695456
-0.041487496 0.03523641 -0.050992753 -0.011218712 -0.18707742 -0.030745877 -0.034482352 -0.08641164
-0.011415914 -0.14834341 -0.055549696 0.0338848 -0.035456214 0.014063651 -0.011488884 -0.08447541
-0.16361704 0.030624462 0.028238075 -0.04999756 0.030086763 0.018236287 -0.08099876 -0.18165077
-0.04322301 -0.083261706 -0.085653886 -0.027547395 -0.07408579 -0.66872334 -0.33324137 -0.21615955
-0.15086344 -0.17392217 0.035934698 0.0753198 -0.20263262 0.057774015 0.016857397 -0.30631265
0.046866316 0.02365244 0.016974054 0.03770013 0.021576522 -0.0939781 0.036133166 0.021097098
0.058530908 0.021336574 0.02881093 -0.055538215 0.023103533 -0.05714218 0.084714875 -0.08648362
-0.42350957 -0.12257913 0.02328188 0.030617682 0.01816668 0.07938747 0.05043943 0.03660064
-0.17495273 0.040294904 -0.34785888 -0.039283577 -0.14275043 0.05469132 -0.008096081 -0.118373245
-0.121919505 -0.05778092 0.007852712 -0.04067138 -0.036396675 0.055890027 -0.010806659 0.06192083
-0.035647374 -0.099115975 -0.064472094 0.065724604 -0.09396455 -0.21124156 0.03211037 -0.020294625
-0.13902567 -0.08884381 -0.11637177 0.07148244 -0.022997025 -0.050524756 0.02423838 0.01204815
-0.12324288 -0.1486839 0.05497935 -0.08031861 0.0549671 0.013099279 0.015514119 0.04549517
0.03267139 0.029623067 -0.19517718 -0.10510043 -0.070834264 -0.20997122 0.043519102 -0.10947331
-0.047658104 0.009404726 -0.02074448 0.0042602997 -0.104772314 0.03886045 -0.06083788 0.07696267
-0.19908889 -0.050161827 0.019146372 -0.081036136 0.05493599 0.030368429 0.062058546 0.07500806
0.06925667 -0.13654512 0.028858224 -0.089360915 -0.08179278 0.0150903305 -0.01455284 0.050175015
-0.07736215 -0.108953275 0.053482518 -0.09387026 -0.22589672 -0.24073257 -0.11478397 0.059829216
0.06352731 0.03538467 0.0008501876 -0.19539937 0.018125925 -0.051280566 0.034507897 -0.07513168
-0.09890282 -0.21549152 -0.13243029 -0.050302528 0.0020144074 -0.13964637 0.05112093 -0.074869655
-0.020692328 0.013923931 -0.007985016 -0.12744719 -0.05761326 -0.17017107 0.007265654 -0.19914763
-0.19332002 -0.23242939 0.03650055 0.025998684 0.0072802715 0.014993112 -0.02435436 -0.021974877
-0.16211882 -0.18098222 -0.086631685 -0.024814997 0.030626211 -0.20526211 -0.057518356 0.07289432
-0.109902896 -0.07951967 -0.12894902 -0.110523224 0.02537294 -0.13583031 0.072654895 0.08828928
-0.032282542 0.02300914 -0.07449944 -0.09554218 0.020592256 -0.1866959 0.034707293 0.071619645
