models/model_2.pt (torch, 451459 bytes, 22 tensors)

weight f4 [16, 1, 3, 3]
00000000: 600f 2cbe 5c4d 923e 603c 013d 8fe4 51be
00000010: e03c 243e ea17 fdbc b0da 15be b612 ee3d
00000020: 0e04 953e d00c 443e 3bbc 23be efb2 803e
00000030: b1a0 8dbe 80be 993e 94c2 9cbe dc7b 81be
00000040: ada5 083e 79b8 cebd a54c 93be 5796 12be
00000050: 6e55 1a3d 2593 6a3e 04e9 e6bd b61b b0be
00000060: ca52 793e 13b0 9bbe 12c7 96bd af0d 663e
00000070: 07ea 12be 7586 6bbd 85dd 89be 96c5 1fbd
00000080: 363e 19bc 2fea a43e 5eeb fabd 0a67 53be
00000090: 03cd 46bd 3f67 753e 34f7 823e f8f6 e7bd
000000a0: ca16 aebd 209e 7abd 515b 26bd 2a6b f33d
000000b0: 9911 853e b548 3cbe 472c 9fbd 745f a9be
000000c0: f210 ea3d 0e71 c2bd 5d7c c9bd 797b ad3c
000000d0: 1d27 62bd eb3b bc3d 89ea db3b 6dc9 913e
000000e0: 9112 8fbe db06 3c3a fdf1 85bd deff 06bb
000000f0: defc 883e 44e2 0e3e 112e 8cbd 3ecd 89be
00000100: 2350 17be 363e a63d cc4b e6bd 632e 623e
00000110: 7c17 293e f393 86be a78d 8bbe d5f1 e4bd
00000120: b47e 79bd a6fd 20be 34bb 3c3e e2fe abbd
00000130: 17b3 47be 7ace 673d 7183 48be 60ca a8be
00000140: 80b9 96be 75ae 96be 0374 6cbe 6cee 8ebc
00000150: ebac 82be 62e3 ed3d 84ca d43d d7ee 77be
00000160: 11a6 3e3e 2c62 2f3e c796 603e 0f5c f6bd
00000170: e21c 923e d6c1 6dbe f1c3 823d c114 423d
00000180: e3ab 013e 0141 d5bd 6e3e 83be bd81 f13d
00000190: 2089 493e 6952 98be 7370 853e 93a0 743d
000001a0: bc15 50bd b7ad 87be 8512 cd3d 1c05 a53e
000001b0: 4aec 83be e753 c13d 1014 17be 1885 5bbe
000001c0: 272b 8d3e b12a 31be 5f1f 193e 78b3 883e
000001d0: 0d5e 443e 1503 8fbe ebdf 3cbe 7730 c6bd
000001e0: 44d6 8d3d b999 d7bd d4dd f4bd 372e 833e
000001f0: 71b9 e9bc 11f9 d8bd e6be 8f3b b3a3 653e
00000200: f71e 523c 4210 d03d 6499 abbe 170a ca3d
00000210: 0870 b53c f317 bcbe f473 0dbd 415a 54be
00000220: 0c23 2b3e 1343 c23b 8c7e 9c3d 0886 74be
00000230: ac5d 33be 6955 8c3e b33f 433e f421 313d
-0.1680274 0.28574646 0.03155172 -0.20497344 0.16038847 -0.030895192 -0.14634204 0.116246626
0.29104656 0.19145513 -0.15989773 0.25136515 -0.2766166 0.30028152 -0.306172 -0.2528981
0.1334445 -0.10093779 -0.28769413 -0.14315163 0.03767913 0.22907694 -0.11274913 -0.34396142
0.24347988 -0.3040777 -0.073621884 0.22466157 -0.14347087 -0.057501275 -0.26926818 -0.039006792
-0.009353211 0.32209918 -0.12251924 -0.20644775 -0.04853536 0.23965167 0.25579226 -0.113264024
-0.085004404 -0.061185956 -0.04061443 0.11885674 0.25989988 -0.1838711 -0.07772117 -0.33080637
0.11429013 -0.0949422 -0.098381735 0.02117704 -0.055213083 0.09191116 0.0067113084 0.28473988
-0.27943853 0.00071726524 -0.06540296 -0.0020599286 0.26755422 0.13953501 -0.06844724 -0.269144
-0.14776663 0.081173345 -0.11244926 0.22088008 0.16512865 -0.2628475 -0.2725651 -0.11178938
-0.06091185 -0.15721759 0.18430787 -0.083982244 -0.19501911 0.056593396 -0.19581391 -0.329669
-0.294384 -0.29429975 -0.2309113 -0.017447673 -0.2552255 0.116156355 0.10390189 -0.24212204
0.18618037 0.17127293 0.21932517 -0.120292775 0.2853766 -0.23218474 0.06385029 0.047383074
0.12663226 -0.10412789 -0.25633568 0.11792324 0.19681215 -0.29750374 0.26062354 0.059723448
-0.050801978 -0.2649972 0.10013298 0.3223046 -0.25766212 0.09439831 -0.14753747 -0.2143749
0.27571985 -0.17301442 0.14953373 0.26699424 0.19176503 -0.2793204 -0.18444793 -0.09677213
0.069256335 -0.10527367 -0.11956373 0.25621197 -0.028530808 -0.10594381 0.0043867705 0.22425728
0.012824765 0.10159351 -0.33515465 0.09865206 0.022148147 -0.36737022 -0.03453441 -0.20737554
0.16712588 0.005928406 0.076413244 -0.23879254 -0.17516202 0.27408913 0.19067268 0.04324527

bias f4 [16]
00000000: 91fd ae3c cbcf 233e 2c0d 8c3d 135e eebd
00000010: 8c72 223d 5123 8d3e 8381 4e3e 9576 09be
00000020: 2acf ad3d 2e55 6cbe 7e68 fa3c 3ff6 893e
00000030: 3c1d 993e af44 2cbe 8ff8 84be bbc6 433c
0.021361144 0.15997235 0.0683845 -0.11639037 0.03966002 0.27566007 0.20166592 -0.13424142
0.08486779 -0.23079368 0.030567404 0.26945683 0.29905117 -0.16823076 -0.25970885 0.0119492365

weight f4 [16]
00000000: 0f83 773f f219 793f c4c6 773f de7c 6c3f
00000010: aa46 723f b4c8 6f3f e0a6 6d3f 0211 773f
00000020: 685b 833f ab79 783f 40dc 7b3f 78d3 6d3f
00000030: f256 723f 3574 6e3f c7a4 773f 8cf1 753f
0.96684355 0.97305214 0.9678767 0.9237803 0.94639075 0.93665624 0.92832756 0.96510327
1.026227 0.9706065 0.9838295 0.929008 0.9466392 0.9314607 0.96735805 0.96071696

bias f4 [16]
00000000: f54a c63c eca1 1c3c a691 5ebd 13a4 713d
00000010: ca3a ac3a 0499 c8bc 5911 c7bc 3da6 053d
00000020: 3c06 3cbd 5cfc a23c a2fa da3c 6442 92bd
00000030: 0008 3ebd 93e1 0d3c 9c45 b5bb c7d8 6fbd
0.024205664 0.00956009 -0.05433812 0.058994364 0.0013140079 -0.024487026 -0.024300264 0.03262924
-0.045904383 0.019895725 0.02673084 -0.07141569 -0.04639435 0.008659738 -0.0055319797 -0.058556344

running_mean f4 [16]
00000000: 37c4 203e 20f6 cd3d 02de 0c3d ff96 343a
00000010: 1785 723e 2ac0 193e f963 9c3e 9fbb ab38
00000020: c125 173d 2956 b53a f178 6d3d cdb8 dc3e
00000030: 903d bc3e 59ec 8e39 c710 b035 85ba 9b3d
0.1569985 0.1005671 0.03439141 0.0006888955 0.23683582 0.15014711 0.30545023 8.1888626e-05
0.03690124 0.0013834882 0.057976667 0.43109742 0.36765718 0.00027260443 1.3117905e-06 0.07603935

running_var f4 [16]
00000000: fb4e ef3c 5440 e53b 7cc8 023b 3578 1d38
00000010: 2415 4d3d 75e2 893c c2ae bf3c 8540 5436
00000020: 4bba fc3a 74ae e938 ec55 8f3b 31ee 1d3d
00000030: 8232 d03c 407d 5037 13d9 5a33 2f6a 063c
0.029212466 0.006996194 0.0019955924 3.754367e-05 0.05006899 0.016831616 0.02339876 3.1628017e-06
0.0019281594 0.000111428 0.0043742564 0.038557235 0.025414709 1.2426928e-05 5.0954508e-08 0.008204027

weight f4 [32, 16, 3, 3]
00000000: c68a 073d 80a4 6bbd 9888 993c 9720 79bd
00000010: d6f7 62bc 7b45 5dbd 0059 3ebc ed19 843d
00000020: 893c 64ba f4d7 8fbd 89a3 2fbd 5f3d c0bd
00000030: 3f5a 18bd ca22 933d 4198 053d a213 773d
00000040: bfef ab3d 3402 793d 7b3e 803d f3e2 0ebc
00000050: 630f 523c b1c3 8ebd 15df 7c3d 1053 21bd
00000060: a1d6 073d f325 f7bd d2aa aabd 9ff3 2b3d
00000070: ab3b 7c38 fdd0 45bd af71 a23d a60b a93c
00000080: eeb2 623b 791f c7bb 5c50 99bd 3d32 88bc
00000090: dcba 7a3d f5e1 5dbc 9ece bbbc 8c54 43bd
000000a0: 45b8 ca3b a1d3 f73c 127d f43c 29a4 d73a
000000b0: 7aa9 c63d ad97 2f3d 2de1 563d 1038 593d
000000c0: e798 a63d d77d 7b3d d6f5 31bd 6e04 e3ba
000000d0: 3aaf c5bc 0b8c 853c d0e4 66bd 9849 283d
000000e0: 5747 2dbd 72d0 0f3d 6e9d fdbc d4a4 343d
000000f0: 255a 3cbc 8596 513d d446 d8bc 36f8 cdbc
00000100: fcd3 633d 8455 bb3b 71dc 30bb 605d 753c
00000110: 6cce 8b3c 540e 683d 1885 ba3c 96d1 02be
00000120: 73dc 793c c65e 0a3c 0406 a53b 9f8e 7e3c
00000130: 6f89 c73d 5b69 3abd ffa2 553c 06bc ae3d
00000140: 1093 34bd 32f0 80bd 6849 b7bd a990 1dbe
00000150: 0153 0a3d 584e e2bd bc7d b43c f2da 173d
00000160: e74b 20bd b3f8 5bbd 9da3 363d 7d4a 6bbd
00000170: 6b07 d1bd a506 223d 1dc7 17bb 0f82 23bd
00000180: 4f3a 38bd ea86 32bd 546a 113d 56a1 843d
00000190: 0e6a 943c bde0 483d c0c0 9fbc a67e fbbc
000001a0: 78cd 4d3d 9825 9b3d b4d5 5fbd b843 693d
000001b0: 1c07 f43c 5b21 bf3d bbfe b13c d5dd bebd
000001c0: 92e8 aebc 0d7c 80bc 653b bfbc 6d6f 963c
000001d0: 612b 9e3d b0da 16bd 745f e43c 2475 923b
000001e0: 17a7 6b3d 75a2 50bd a409 8dbb 4ae2 29bd
000001f0: 0619 a83c a966 203d c0f4 553d 2fea 3e3d
00000200: aac0 d03d 60e1 87b8 f432 5abd e370 9bbd
00000210: a91d 3dbc 6e02 07bd b0ef 593c 00eb e13b
00000220: c5bb 193b a4e2 673d 5a84 473c c0a9 4c3d
00000230: a990 873d 51e0 b53d 01a5 14bd 6328 93bc
00000240: cccf c93d 0741 42bd 56f6 1d3d bfa5 b53c
00000250: c568 bc3d f5d5 a639 dcef 933d b942 403d
00000260: 35f8 a8bd 3689 36bd 7ad6 803d dcd1 bdbc
00000270: 7935 20bd cc2a 1b3d ccf4 e0bc f7aa 9ebd
00000280: 6823 6c3d c541 e33d 8d99 0ebd a55a ac3c
00000290: 0208 c6bc aeb2 8ebc edff 433d b251 8f3d
000002a0: 1136 a9bc a906 f43d 2e70 a53d 146d 7a3d
000002b0: 4930 26bd 0796 89bc b211 5cbd 0e7e 40bd
000002c0: d11e 7c3c e6bd 65bd 5182 a0bd 88f7 943b
000002d0: bf16 09bd 65f0 e9bc 023c 96bd 6e70 49bd
000002e0: e5de c63b 9c89 c23c f297 90bd 348a eb3c
000002f0: f59e 9e3c 1c4c 013d 6da3 e83c ff97 233d
00000300: 061f e8bc bc75 e6bc f5b2 58bc dd65 81bc
00000310: 62f5 663d 5c08 5d3d 0c62 c2ba 38c1 463c
00000320: 9dd1 903d ef6b 20bd e24c 7bbd 4eb5 ea3c
00000330: 9cb1 efbb ae9f b5bd e48a 6fbd b0f0 97bd
00000340: 0d9f 403b 335b 91bc 187d 94bc f1cb 253a
00000350: 1f2e 7bbd de8f ccbc 6cfd b43c c19b 56bd
00000360: d4e7 6bbd 68be c3bb 36dc 183d 8cb2 c73b
00000370: 6c44 4cbc d745 21bd 5c3c 983c 7505 1ebd
00000380: 1bc2 983d 1a3c bcbd e085 96bd 5a8b 4b3d
00000390: 9629 7bbd b6d0 34bd 71a7 ff3b f62b 29bc
000003a0: 4e0e d43d c697 16bd ad2e 473d d8ae 283d
000003b0: 8dfd 393d 4b50 563d 790b b03d 1aa5 89bb
000003c0: 02df 723d 1e53 76bd a0bf a93d 483b 153d
000003d0: 1bb9 a03d febf 48bd 6c12 94bc 94c2 243c
000003e0: e770 4f3c 63da a03c 5684 21bd bf1c ddbc
000003f0: 4bea 593d 6723 8fbd c7fc 063d 05e3 e93b
0.03309133 -0.057529926 0.01874189 -0.060822096 -0.013853034 -0.05402134 -0.011617899 0.064502575
-0.000870653 -0.07023612 -0.04288057 -0.093867056 -0.03719544 0.0718437 0.032615904 0.060321458
0.08395337 0.060793117 0.06261917 -0.008721101 0.012821051 -0.06970919 0.061736185 -0.039385855
0.03316367 -0.12067785 -0.08333363 0.041980382 6.0137052e-05 -0.04829501 0.0793184 0.020635437
0.0034591514 -0.00607675 -0.074860305 -0.016625518 0.06121336 -0.013542642 -0.022925671 -0.047688052
0.0061865174 0.03025228 0.029844794 0.0016452122 0.09700294 0.04286926 0.052460838 0.05303198
0.081346326 0.061399307 -0.043447338 -0.0017320046 -0.024131406 0.01630213 -0.056370556 0.04108581
-0.042304363 0.0351109 -0.030958857 0.044102505 -0.0114961015 0.051168937 -0.026400961 -0.02514277
0.055622086 0.0057169814 -0.0026986862 0.014975876 0.017066203 0.05665429 0.022768542 -0.12775263
0.015250313 0.008445447 0.0050361175 0.015536933 0.0974301 -0.04551063 0.01303935 0.085319564
-0.044085562 -0.062958136 -0.08949548 -0.15387215 0.033770565 -0.11050099 0.022032611 0.037074037
-0.039134886 -0.053703975 0.044589628 -0.057444084 -0.10206493 0.039557118 -0.0023159452 -0.039918955
-0.044977482 -0.043585695 0.035501793 0.06476085 0.018116977 0.049042452 -0.01950109 -0.03070004
0.05024478 0.0757553 -0.054647163 0.056949347 0.029788546 0.09332534 0.02172791 -0.09319655
-0.021351133 -0.015684152 -0.023343751 0.018363679 0.077231176 -0.03682965 0.027877547 0.0044695307
0.057532396 -0.05093618 -0.004304128 -0.04147557 0.020519745 0.039160404 0.052235365 0.046610054
0.10192998 -6.479281e-05 -0.05327125 -0.07589891 -0.011542716 -0.0329613 0.013301775 0.0068944693
0.0023457867 0.056612626 0.012177551 0.049966574 0.066193886 0.088806756 -0.036290172 -0.017963594
0.09854087 -0.047425296 0.038565002 0.02217376 0.09199671 0.00031821398 0.07223484 0.04693863
-0.08250467 -0.04456445 0.06290908 -0.023171358 -0.039113495 0.03788261 -0.027460478 -0.07747453
0.057650954 0.11096529 -0.034814406 0.021039316 -0.02417374 -0.017419185 0.04785149 0.06998004
-0.020655664 0.11915333 0.08078037 0.06113918 -0.040573392 -0.016795171 -0.053727813 -0.046995215
0.015388207 -0.056089304 -0.07837356 0.0045461096 -0.033468958 -0.028557012 -0.07335664 -0.049179487
0.0060690516 0.023747258 -0.07060231 0.028752424 0.019362906 0.031566724 0.02839824 0.039939877
-0.028335106 -0.028132312 -0.01322626 -0.015795643 0.05638636 0.05396305 -0.0014830246 0.012131028
0.070712306 -0.039165433 -0.061352618 0.028650906 -0.007314874 -0.08868347 -0.058482066 -0.07418954
0.0029391677 -0.017743682 -0.018126056 0.000632464 -0.06132328 -0.024970945 0.022093497 -0.052394632
-0.057594135 -0.005973626 0.037319385 0.0060942825 -0.012467485 -0.039373245 0.01858347 -0.038579423
0.07458898 -0.09191151 -0.073497534 0.049693443 -0.061318956 -0.044144355 0.007801943 -0.0103254225
0.10354291 -0.036765836 0.048628498 0.04118237 0.04540782 0.052322667 0.08595938 -0.00420059
0.059294708 -0.06013786 0.08288503 0.036433488 0.07847806 -0.049011223 -0.01807519 0.010056157
0.012661195 0.019635385 -0.039432846 -0.026991246 0.053201955 -0.06989174 0.03295591 0.0071376585

bias f4 [32]
00000000: 1a14 383c e47f f83c 5d52 5bbd 6344 df3c
00000010: d236 91bd ca7f 80bd 613d 8dbd 06f2 58bd
00000020: bfba 393d 3e64 e13c 76f7 53bc 5865 a03a
00000030: 80ef bdbd b6e3 01bd 0a0f 133d 25a3 acbc
00000040: 66c9 4cbd 71ba 51bd 0f25 8dbd 4d39 07be
00000050: 488f 14bc e405 bdbc f756 123d e7f0 50bd
00000060: 8223 2e3c 5153 e2bc 6d2d 12bd b2cc 333d
00000070: 20eb 72bd bf28 70bc 70bf 9ebd da9a 823c
0.011235261 0.03033442 -0.053545345 0.027254289 -0.07090534 -0.06274374 -0.06896473 -0.052965187
0.04534411 0.02751362 -0.012937417 0.0012237234 -0.092741966 -0.031711303 0.035903014 -0.021073887
-0.049996756 -0.051203195 -0.06891834 -0.13205452 -0.009067364 -0.023074098 0.035727467 -0.051010992
0.010628583 -0.027627619 -0.035687853 0.043896385 -0.059306264 -0.014658152 -0.077513576 0.01594298

weight f4 [32]
00000000: f5f8 723f 77c9 743f 5152 723f 4457 6f3f
00000010: cb8e 6d3f a55e 6e3f 8ee4 713f 18c5 763f
00000020: 920d 6c3f 7801 7e3f 110b 6e3f 1c11 6a3f
00000030: de31 7c3f 62a1 743f 837d 713f 3ccc 613f
00000040: fbe8 723f f4bd 6c3f 64a3 713f 303c 693f
00000050: 49d8 673f 79e9 643f 2511 773f f409 6d3f
00000060: a4fa 6e3f 74c0 713f cd3c 633f 69c1 6c3f
00000070: 0ca2 6c3f eb7e 6d3f 241d 6e3f 672b 643f
0.9491113 0.9561991 0.94656855 0.9349253 0.9279601 0.93113166 0.9448937 0.9639449
0.92208207 0.9922099 0.92985636 0.91432357 0.9851359 0.9555875 0.9433214 0.8820226
0.9488675 0.92477345 0.9438994 0.91107464 0.905644 0.8941875 0.96510535 0.9259331
0.933512 0.94434285 0.8876465 0.9248262 0.92434764 0.92771786 0.93013215 0.89128727

bias f4 [32]
00000000: 4244 4f3d 6580 273e 00a4 2bbd eaeb 013e
00000010: 2348 b83e 497d 853e 5e82 3d3d 7277 1a3e
00000020: 2edb 1abb b588 b9bd 2190 573e 0969 dc3d
00000030: 1970 0f3e 786b 663e 6017 a93d c009 a83d
00000040: 890f 053e 4c61 b83a 2482 563e a680 803d
00000050: 80fb 413e 66fd 393e cf1a 71bb 0fc2 b83e
00000060: aea4 453e 648d 523e ad61 5abe 100a af3e
00000070: ca16 9cbe 084e 81be 6c18 9dbc b546 71bd
0.050602205 0.16357572 -0.04190445 0.1268765 0.35992536 0.26072147 0.046266906 0.15084627
-0.0023629176 -0.09059278 0.21051075 0.10762221 0.14007606 0.22501934 0.082564116 0.08204985
0.12994207 0.0014067083 0.20948082 0.06274538 0.18943596 0.1816307 -0.003678966 0.36085555
0.19301102 0.20561749 -0.21326323 0.34187365 -0.30486137 -0.25254846 -0.019176684 -0.058905322

running_mean f4 [32]
00000000: 3a7b 0b3e 4681 593e 712b 8d3e 91d6 603e
00000010: 532d 343e fe97 793e a64c 1d3e ff89 5b3e
00000020: eaf3 393e b041 8d3e 9261 0d3e bb79 183e
00000030: 73d4 9c3d c071 103e 4110 783e ab7f 643e
00000040: 6cd6 933e d8a2 9f3e 6bf6 203e 95a4 833e
00000050: 2b1d 643e e6ec 353e 065e 553e bf1e 103e
00000060: d458 a13e 5be4 1a3e eb4e bb3e f580 1a3e
00000070: 0a36 c13e 6322 e43d 2960 c43d 23aa 733e
0.13621226 0.2124072 0.27572206 0.2195685 0.17595415 0.24374387 0.1536127 0.2143936
0.18159452 0.27589178 0.13806751 0.14890186 0.07657709 0.14105892 0.2422495 0.22314326
0.28874528 0.31178927 0.15719001 0.25711504 0.22276752 0.17766151 0.20836648 0.14074229
0.31513083 0.15126173 0.36583647 0.15088256 0.3773654 0.11139371 0.095886536 0.23795371

running_var f4 [32]
00000000: 450d 3f3d ee68 913d 0971 be3d 7489 ed3d
00000010: b4d4 a63d d587 a13d f6d3 6b3d b10a f43d
00000020: 0d1f a83d 8e2a 0b3e 8b40 313d aab1 933d
00000030: ef36 4d3c 5534 663d e7f7 043e 7376 ea3d
00000040: 9374 403e c4a1 d83d 6b80 253d 87b6 283e
00000050: c512 d73d 311e c93d 9500 a03d a6f3 bc3d
00000060: b338 183e 5497 953d cda6 903e 832c 893d
00000070: aae0 283e f45e 393d ea53 253d b923 fc3d
0.046643514 0.07100092 0.092989035 0.11598483 0.08146039 0.07887236 0.05757519 0.11916102
0.082090475 0.13590452 0.043274444 0.07211621 0.012525304 0.05620225 0.12985192 0.11448374
0.1879447 0.10577729 0.040405672 0.16475879 0.10501627 0.09820212 0.07812611 0.0922616
0.14865379 0.07304254 0.2825226 0.06697943 0.16491953 0.04525657 0.04036323 0.12311501

weight f4 [64, 32, 3, 3]
00000000: fa52 54bd be69 1cbd a9b3 843c 0058 d03c
00000010: 98b3 61bb 2678 f5bb 5a93 88bd 377c 853d
00000020: 6e6a 6b3b 891f fbbc 2945 f2bc dc1c 58bc
00000030: 33c0 a6bd cb82 243c d39e 553c e825 cc3b
00000040: e08c 17bd 00c8 1bbd 6caa c33d 053e c13b
00000050: 00b7 573d e6ee 363d 7449 773d 96dc 3f3d
00000060: 1215 a1bb 3677 90bd 0440 f93c 5721 9abc
00000070: 3819 573d f8ca ce3c 188f 373d ab55 a63d
00000080: de80 8cbc 3486 5fbd 0077 93bd 3396 97bc
00000090: 994c 113d 22bc 80bd d952 69bd f4cd 1f3d
000000a0: 0d98 3b3d 86a9 1dbd e4f6 65bd f423 67bc
000000b0: 200a 0cbc 5da1 33bc 6093 9fbd 1073 4abd
000000c0: 149e 20bd 96aa 543d ce1c d53c 0c61 0bbd
000000d0: 5b44 cabc b451 993d ec65 15bc 3a71 393c
000000e0: 76ec 893d 8297 84bd d182 51bd 19b4 573d
000000f0: 8303 51bd d412 7cbd e006 243d 76e1 25bd
00000100: 7b95 b7bc b001 babd d77a ccbd 6491 9cbd
00000110: 546c 15bd 54d1 94bc 408d babd 056d f23b
00000120: 5a17 78bc d1dd 823c 6def 02bc c8bc 5d3b
00000130: 62ec 06bd bc84 ab3d c3a1 393d 3345 5c3c
00000140: b105 ae3c 2c10 27bd 4a70 263d c6e3 85bc
00000150: e49b 73bd ef17 633d b8ff 09bd 96b2 e53b
00000160: c9e4 c23d 0c6b 2f3d 6653 9b3c 1dcc f03b
00000170: fe04 c33a 331a cb3b f593 1fbd 674e bc3a
00000180: 1b2b a6bc 3d00 593c 34db 83bd 7952 fd3c
00000190: 1673 a83c fc9d 8dbc d937 863c 276a 233c
000001a0: 86f1 5d3d 41cc c1bc 6dae 883c 491c 9d3b
000001b0: 18b0 6cbd 8a95 8e3b 7166 d5bc 7045 a43c
000001c0: a071 5e3c 4149 03bd 954e a63c e56a 3f3d
000001d0: e81b 313d e266 1cbb 1959 353d 3bf6 32bc
000001e0: fc52 96bc 6cff e33c 139a 25bc 89d8 4bbd
000001f0: a560 febc 30d6 bc3c 1669 c2bb dbcf 4fbc
00000200: c6f6 a8bd 5c68 3c3d 20c9 f83c 0538 f53b
00000210: 912b b8bc 6b94 40bb 38e8 583c 5381 aa3c
00000220: 3428 8c3c b16a fc3c 65a7 7abd 87de 15bd
00000230: 979b e7bc c2e9 423c 0237 873d 7982 c6bc
00000240: a169 06bd b03d 5c3c e7d6 06bd 3942 6dbc
00000250: 2113 68bc a242 883c f1e7 97bd 9346 9d3c
00000260: c367 b03c fa8e 73bd b5f9 7cbc 11f9 0bbd
00000270: 9815 88bb 5da1 c7bc 181a bf3b 5ffe 1a3d
00000280: 579d 553c 6786 523d 56b6 cbbc cffe f8bc
00000290: b68d b2bd 6e6b 3fbd 9f0d db3c 860b 29bd
000002a0: 6deb 1abd 7fea 873c 72e5 453d 9c58 103d
000002b0: b2bf c93c 44d7 21bc 74b0 c63c 333b 213b
000002c0: 54d1 2b3d 9144 8b3c f078 4ebb eb40 c03c
000002d0: dbcf 333d 5b10 83bd 9d02 8abb fc3e 033d
000002e0: b0f2 9ebd b5e9 cf3c 1644 c9bb 2e74 07bd
000002f0: c0f9 98bc b693 183d c4cd 153d abdb 843c
00000300: 65cd 733d f65b 753c d3b2 19bd 59ec bfb8
00000310: b6ef 8fbc 1a8e b63c d6cb 04bc 471f 333d
00000320: c95f 103c 42be 9e3c ff36 85bc 793d 453d
00000330: 1ccf 1b3d 5a40 793c 4156 b53c d6dc 803c
00000340: 0f2a 383d 2ac2 b9bc a01d d23c 5b0a 6cbd
00000350: f40b 16bc 0567 d43c 9e49 27bd e55c 8bbc
00000360: 96da 833d 3d74 95bb 402f e6bc 6b6a 08bd
00000370: 767c ebbc 7bb8 a0bc 8bc7 94bd 68bf 0dbd
00000380: 0ba4 673c 4a1b f93c 4e6c 253d 63c4 87bb
00000390: 413a 7a3d 7c12 96bc 3924 40bd ec50 82bd
000003a0: bddf 003c 4875 023c 4950 693c 321f 49bd
000003b0: a817 0dbd 7ef8 f13b 0816 0c3d f853 203c
000003c0: afbd e33c 1aed 533d cf15 333b 965b d7bc
000003d0: 1acb 00bd 0981 1dbd 4481 21bd 1d9d 823c
000003e0: 8ed7 66ba 80d8 cc3a 8bdf 843c 5a6e 9dbd
000003f0: 665b 4238 d576 10bd 10e0 8b3c bf87 41bb
-0.051836945 -0.03818678 0.01619895 0.025432587 -0.0034439322 -0.0074911295 -0.0666873 0.06517833
0.0035921591 -0.030654686 -0.029573994 -0.013190474 -0.08142128 0.010040949 0.013038355 0.0062301047
-0.036999583 -0.03803253 0.0955399 0.005897286 0.052664757 0.044661425 0.060372785 0.046841227
-0.004915842 -0.07053988 0.030426033 -0.018814726 0.052514285 0.025243267 0.0448142 0.081218086
-0.017151292 -0.054571345 -0.07200432 -0.018504238 0.03547344 -0.062858835 -0.056963775 0.03901477
0.045799304 -0.03849175 -0.056143656 -0.014107693 -0.008547336 -0.010963765 -0.077917814 -0.04942614
-0.039213255 0.051920496 0.026014712 -0.034028098 -0.024690798 0.07486287 -0.009118538 0.011318499
0.067345545 -0.0647421 -0.051150147 0.05266199 -0.05102874 -0.061541393 0.04004562 -0.04049822
-0.022410145 -0.09082353 -0.09984367 -0.076449186 -0.036480263 -0.018166222 -0.091089725 0.00739825
-0.015142286 0.01597491 -0.007991654 0.0033834446 -0.032940276 0.083749264 0.045320284 0.013444233
0.021242948 -0.040786907 0.04063443 -0.016343962 -0.05947484 0.055442747 -0.033691138 0.0070098145
0.095162936 0.042826697 0.018960666 0.007348551 0.0014878807 0.0061981915 -0.038959462 0.0014366627
-0.020284226 0.013244686 -0.06438294 0.030923115 0.02056269 -0.017287247 0.016384052 0.009974039
0.054185413 -0.023656966 0.016684735 0.0047946316 -0.057785124 0.0043513225 -0.026049824 0.020052642
0.013576895 -0.032052282 0.020301143 0.046732802 0.043239504 -0.0023865034 0.044274423 -0.010922964
-0.018350117 0.027831756 -0.010107535 -0.04976705 -0.031051943 0.023051351 -0.0059329374 -0.012683834
-0.08250193 0.045997962 0.030369341 0.0074834847 -0.022481712 -0.002938534 0.013238959 0.02081362
0.017109014 0.030812593 -0.061194796 -0.03658917 -0.028272433 0.0118965525 0.06602289 -0.024232136
-0.03281558 0.013442442 -0.03291979 -0.014481121 -0.014164717 0.016633336 -0.07417286 0.019198691
0.021533852 -0.059462525 -0.015440394 -0.034173075 -0.004152965 -0.024368936 0.005831968 0.037840243
0.013038001 0.051397707 -0.024867218 -0.03039494 -0.087184355 -0.046733312 0.026739893 -0.041270755
-0.037822176 0.016591309 0.04831452 0.035240754 0.02462754 -0.0098779835 0.024254061 0.0024601936
0.041947678 0.017000468 -0.003150519 0.023468455 0.0438994 -0.06399604 -0.0042117373 0.03204249
-0.07761133 0.025379995 -0.0061421497 -0.033069782 -0.018673778 0.037250243 0.036573187 0.016218027
0.05952205 0.0149755385 -0.037524056 -9.151613e-05 -0.017570358 0.022284556 -0.008105239 0.043731
0.008811899 0.019377831 -0.016261576 0.048154328 0.03803931 0.0152130965 0.022135856 0.015730303
0.044961985 -0.022675592 0.025648892 -0.057627063 -0.009158123 0.02592803 -0.04084169 -0.017012069
0.06438176 -0.004560976 -0.028098702 -0.033304613 -0.028745871 -0.019619217 -0.07264622 -0.034606367
0.014138232 0.03040852 0.04038649 -0.004143284 0.06109071 -0.01831936 -0.046909545 -0.06363091
0.007865843 0.007962532 0.014240333 -0.049102016 -0.03444639 0.007384359 0.034200698 0.009785645
0.02780041 0.05173979 0.0027326231 -0.026288789 -0.031443693 -0.038453136 -0.039429918 0.015944058
-0.0008805924 0.0015628487 0.016219875 -0.076870635 4.6338326e-05 -0.035269577 0.017074615 -0.0029530374

bias f4 [64]
00000000: a239 f1bd a61f 39be 3727 ddbd a400 f4bd
00000010: 150d 41be ec13 dcbd 7a01 e7bd 0e20 49be
00000020: 2234 b3bd 5101 02be 499f 00be e27a 84bd
00000030: 8b5b 89bd f40e 2ebe a43a 09be 9a54 d6bd
00000040: 4428 06be c3f1 e2bd 08e3 08be 2006 20be
00000050: 235d 5abd acd9 fdbd fb2d 15be 7c5d 8fbd
00000060: 4cc4 18be 2260 40be d1be 17be 4a75 30be
00000070: bd2b 0abe 9d0d 55be fca1 bdbd e8e0 32be
00000080: fad8 f6bd 9037 c0bd bea5 0dbe 684c cdbd
00000090: 1511 41be 4642 c3bd fad0 17be d542 36be
000000a0: a84e d5bd 37f1 82bd 6d11 b1bd c51d 8cbd
000000b0: 816c 00be 9d57 c9bd 2e8d 0cbe 21d3 d1bd
000000c0: c8da cebd 90da 2bbe cca7 00be 1958 fabd
000000d0: 503e efbd 1064 0ebe 50a2 0bbe 4752 07be
000000e0: e633 bcbc dd4f cbbd e390 3ebe d110 d9bd
000000f0: 8945 13be 36ae 27be b4b4 b4bd 9966 2bbe
-0.11778571 -0.18078479 -0.10798495 -0.11914185 -0.18852647 -0.10745987 -0.112795785 -0.19641134
-0.08750178 -0.12695815 -0.12560762 -0.064687505 -0.067069136 -0.16997892 -0.13401276 -0.10465355
-0.13101298 -0.11081269 -0.13367856 -0.15627337 -0.05331148 -0.12395033 -0.14568321 -0.070002526
-0.14918631 -0.18786672 -0.14818884 -0.17232242 -0.13493247 -0.20805974 -0.09259412 -0.17468607
-0.12053104 -0.09385598 -0.13832757 -0.10024339 -0.18854173 -0.09534125 -0.14825812 -0.17798932
-0.10415393 -0.06393664 -0.08645902 -0.068416156 -0.12541391 -0.09831164 -0.13725731 -0.10245348
-0.10100323 -0.16782594 -0.1256401 -0.122238345 -0.11681807 -0.13905358 -0.13636136 -0.1321498
-0.022973966 -0.09927342 -0.18609957 -0.105989106 -0.14381994 -0.1637505 -0.08823529 -0.16738357

weight f4 [64]
00000000: c98d 9d3f 5a8c 9a3f 3d6a a03f cd9d a63f
00000010: 4a37 9d3f e384 9d3f a5a7 973f 64a8 9d3f
00000020: 052a 9c3f f3a8 9c3f 0870 943f 1bda a03f
00000030: a0f4 9d3f bdfe 973f 057d 9f3f de62 9a3f
00000040: 4698 a03f ea45 9f3f 07c7 9e3f 91b0 973f
00000050: a7ca 9a3f 7b1d a03f 1b86 ad3f bb88 9d3f
00000060: ca6e 983f a858 9c3f f910 aa3f 6a9b 983f
00000070: c243 a33f 7b68 9c3f 6304 9c3f 28ce af3f
00000080: 96ec 9e3f 8e67 a03f c1c1 a93f e3b7 9b3f
00000090: 757c 943f 174c 9e3f 05e7 9a3f a602 9e3f
000000a0: a9c7 9a3f 2bd4 9a3f 51d8 9d3f 2915 9c3f
000000b0: 86df a13f e2a0 9e3f e304 993f 9330 973f
000000c0: 02f3 a43f 73ec 9b3f 3c56 993f 93b9 9e3f
000000d0: 49d3 9c3f 7a81 9e3f e327 9b3f 8ae1 a53f
000000e0: fc17 983f b5ca 9c3f 6af6 a53f d6ca a43f
000000f0: 97b9 9e3f ecf4 9c3f b088 a03f 6b8b 993f
1.2308894 1.2074082 1.2532421 1.3016907 1.2282498 1.2306179 1.1848036 1.2317014
1.2200323 1.2239059 1.1596689 1.256656 1.2340279 1.1874615 1.2460028 1.2061422
1.254647 1.2443211 1.2404488 1.1850759 1.2093095 1.2508997 1.3556551 1.2307352
1.190881 1.2214556 1.328643 1.1922429 1.2755053 1.2219385 1.2188839 1.3734789
1.241595 1.2531602 1.3262254 1.2165493 1.1600481 1.2366971 1.2101752 1.2344558
1.2092181 1.2095999 1.233164 1.2193958 1.2646339 1.2392848 1.1954616 1.1811699
1.288666 1.2181534 1.1979442 1.2400383 1.2251979 1.2383263 1.2121547 1.2959454
1.188232 1.2249361 1.2965825 1.2874401 1.2400388 1.2262244 1.2541714 1.1995672

bias f4 [64]
00000000: 12b9 6bbd c61c a4ba c6f1 aebd b0ee 11bd
00000010: 4fce 6c3c 4429 a8bc 670c 4bbd fc65 50bd
00000020: 38ef ce3b c4c7 15bd ee0c 53bd eec8 bdbd
00000030: d8e8 89bd cba6 06bd d36c e6bb 93e1 bd3c
00000040: f3fc 10bd 0e34 3abd eafc 6bbb 5abe 6bbd
00000050: cb3d 24bd c67c 45bd 5360 8bbd acaf 5abd
00000060: 92b9 9abd 98e6 79bd aa3c acbd 1cdd 78bd
00000070: 7dca c4bc 1622 6bbd 981a fa3c aec9 13bd
00000080: cfec 80bb c28b 6c3c 9050 86bc c979 00bd
00000090: fdd8 3cbd 751e a5bd a706 b5bc 4bb4 adbb
000000a0: 1c06 0ebd 5bad 92bd 1f7e 79bd 19cf 9fbd
000000b0: 6d37 073c 203b 6bbd ee19 a9bc d1ff 9abd
000000c0: 5722 41bd 4650 f3bc 42c9 1e3c 07a9 01bd
000000d0: 6c06 32bd a2a9 a0bd cf25 b9bc 7ada 8bbd
000000e0: 516d 96bc b8b3 81bd 0fed 3dbd 940e 28bd
000000f0: f735 19bd c43a 39bd d729 54bd 3d47 87bd
-0.057549544 -0.0012520782 -0.085422084 -0.03562802 0.014453485 -0.02052749 -0.049572375 -0.05087851
0.006315138 -0.036567464 -0.051526003 -0.0926684 -0.067338645 -0.03287391 -0.007032016 0.023178851
-0.03539748 -0.0454598 -0.0036008903 -0.05755458 -0.040097993 -0.048214696 -0.06805482 -0.05339019
-0.07554926 -0.061010927 -0.08410008 -0.06075774 -0.024022335 -0.057405554 0.030530259 -0.03608101
-0.00393448 0.014437618 -0.016395837 -0.031366143 -0.046105374 -0.0806245 -0.022097899 -0.0053010336
-0.034673795 -0.07161971 -0.060911294 -0.078031726 0.008252961 -0.057429433 -0.020642247 -0.07568324
-0.04715189 -0.029701363 0.009691538 -0.031655338 -0.043463156 -0.07844855 -0.022601036 -0.068287805
-0.018362673 -0.06333107 -0.046368655 -0.041029528 -0.03740498 -0.04522206 -0.051797714 -0.066053845

running_mean f4 [64]
00000000: 51d5 5f3d e63a c63d 975e 9b3d baa2 bc3d
00000010: 48bd dc3d 8cff 9f3d b986 f23d 0a78 e93d
00000020: 748d 1c3e 0b5b df3d 28ea 863d 62df a93d
00000030: 4e22 fb3d ee8d a13d 74cf 913d e184 8d3d
00000040: 13c0 b83d 35d2 8d3d fb68 1a3e 3355 a63d
00000050: 70a3 c33d 3ddd 013e b87b 6b3d 0c5a b93d
00000060: 665d aa3d c12c b03d 9d06 e13d 63f2 8f3d
00000070: 71aa b63d 04bb 8c3d 8a37 6f3d a231 bb3d
00000080: ab43 b63d 8464 8b3d db55 d53d bb94 c63d
00000090: 2d9b 5e3d 0514 ae3d 7b7a 8b3d 3437 363d
000000a0: d19a ac3d d354 bf3d d8f2 9d3d 05a8 613d
000000b0: 8080 973d 86c4 873d 8d11 123d d5cd 2a3d
000000c0: 526e b83d ccc8 693d f73c cf3d 0e0e a33d
000000d0: 41c6 793d 23e5 bb3d 8d62 b93d df2e bf3d
000000e0: 611d e43d f865 cf3d 3eb8 bf3d fe01 f53d
000000f0: 0247 113e da2d f13d fa64 b63d ad0a 793d
0.054646794 0.09679203 0.07586401 0.09210725 0.1077829 0.078124136 0.118421026 0.11399849
0.15288335 0.10906037 0.065876305 0.0829456 0.122624025 0.07888399 0.07119647 0.0691011
0.0902101 0.069248594 0.1507911 0.08121719 0.095526576 0.12682052 0.057491034 0.09050378
0.083185956 0.08602286 0.109875895 0.070286535 0.08919228 0.06871608 0.058402576 0.09140326
0.088996254 0.06806281 0.10416766 0.09696337 0.054347206 0.08499912 0.06810471 0.04448624
0.084279664 0.09342351 0.077123344 0.055091877 0.07397556 0.06629281 0.03566127 0.041700203
0.09005417 0.05707626 0.1011905 0.07961665 0.060980085 0.09174564 0.09052 0.09335112
0.11138416 0.10126871 0.09361313 0.119632706 0.14187244 0.117763236 0.089059785 0.060801197

running_var f4 [64]
00000000: 41a5 bb3c 0769 6b3d 1096 283d 89ce 663d
00000010: b2f6 8b3d 9916 313d 7561 993d d6f7 563d
00000020: 3bc1 c03d 9732 8d3d 6476 353d 6f30 3a3d
00000030: 3e7b 7b3d 57a3 3f3d 255c 133d 1c73 cf3c
00000040: 8f88 8a3d c2f9 193d 5a0c a63d 022a 343d
00000050: 6825 553d 2742 b93d 0b9c c93c 2e22 2b3d
00000060: a62e 7c3d f076 4e3d 7e57 773d 243a 013d
00000070: 0cad 2c3d 7a1b 243d 233a bf3c 4df1 343d
00000080: e246 4a3d dda4 1b3d 625e 783d e04c 6c3d
00000090: 4fd5 1d3d 0528 4d3d cdaa eb3c 2c90 a33c
000000a0: 4887 5e3d 212d 843d 02e9 153d 6353 0b3d
000000b0: 5db6 363d 9fe7 363d 9aea b63c 9672 a13c
000000c0: db2e 563d 4291 db3c 9b95 643d 8c2f 673d
000000d0: df18 e53c 8b21 6c3d bd0c 6a3d 2638 893d
000000e0: e06a 7d3d 9688 713d d11f 823d 3cfc 973d
000000f0: a431 b13d bea5 b03d daae 4e3d bda8 023d
0.022905948 0.05747321 0.041158736 0.05634931 0.06834163 0.04323444 0.074892916 0.05248245
0.09411856 0.06894415 0.04430236 0.045456346 0.06139683 0.046786632 0.035976548 0.025323443
0.06764328 0.037591703 0.081078246 0.043985374 0.052037627 0.09045821 0.02461054 0.041780643
0.061567925 0.050406396 0.060386173 0.031549588 0.042157218 0.040065266 0.023343151 0.044175435
0.049384005 0.037999023 0.060636885 0.0576905 0.038533505 0.050086994 0.028767968 0.019966207
0.054328233 0.0645392 0.036599167 0.03401507 0.04460751 0.044654485 0.022328664 0.01970796
0.05229078 0.026802663 0.055806737 0.05644183 0.027965961 0.057649177 0.057141054 0.067001626
0.061869502 0.05896815 0.06353725 0.07421157 0.08652046 0.08625363 0.05045972 0.031899203

weight f4 [256, 256]
00000000: 9878 f1bd 12a3 83bd f8b5 2e3d 179e 813d
00000010: 2cee 3abd 2349 d93c 70aa 2dbc c3a4 7cbc
00000020: b5df 2f3d 6965 e23d 1005 983d db00 1b3d
00000030: 95d0 5d3d d281 d93d 5858 91bd ca03 85bb
00000040: 7621 053d 89f9 e6bc bfeb 393d aff1 58bd
00000050: 56ea 99bd 3d90 48bc 7a89 6ebb 4705 c13d
00000060: 737b 08bc e369 b6bd ce86 5c3d 27b1 66bd
00000070: 59de 0d3d 5439 f5bd b110 9c3c 5d06 ee3c
00000080: 8b46 96bc b615 ba3d ed7f e03c 626d b4bd
00000090: 7c8b 073d e0eb 94bc c2e3 413d cea8 00be
000000a0: c71d dcbb 14e5 d63b 2338 563d 5d82 16bd
000000b0: b8d7 203d b0a1 463c fea3 1f3b edf4 523d
000000c0: e152 5a3c f3b8 8bbd f949 dcbc b35e 75bc
000000d0: 3de9 1ebd 8932 cebc 5172 52bc 1378 ccbd
000000e0: e598 5ebc ace2 683d 7780 f5bc 7fe9 ca3c
000000f0: 2662 bc3c f0e2 f03b 164a 52bd 1f59 753d
00000100: 2762 ac3c d2ab 60bd 58e2 803d d002 a6bd
00000110: 0b0e 17bd cb91 68bd 6e5c e4bc abd7 883d
00000120: 663b f03c 52ba 8ebd 488b 7ebd 3980 a83d
00000130: 919e c3bb 8293 1a3c 0fbc 083d e15e 883c
00000140: fac5 323c 0c70 b53b b2d5 063b 1f1c 7c3d
00000150: 14af 623d a51c 753d 2620 58bd a4ff 56bd
00000160: 2808 0fbc 55c2 f53d 6bdb 9cbc 2e57 aebd
00000170: 7ad9 08bd 7457 48bd aca2 ff3b 1652 33bd
00000180: 5f46 f6bc 9069 1c3d c108 dfbc 7591 b9bb
00000190: 889e 3ebd 6863 893c fa7a 65bc c218 8bbd
000001a0: 2d31 0dbb 1bcd 903d 80e8 943d 41a7 633d
000001b0: 21de febd 522b 5dbd 5cc4 bf3c 6367 8c3d
000001c0: 5c4b 0b3d 9970 4ebd 507d 833c f684 b13a
000001d0: 1ea0 ca3a 1574 e7ba ad5c e2bd e983 34bd
000001e0: 6d53 bc3b d587 f03c cda4 7d3d ec20 993b
000001f0: 8b15 b5bd 62e3 83bc 2a74 42bd d1d8 033d
00000200: d86d 463d 039a 91bc 9db5 903c 29d3 463d
00000210: 448e 67bd 128b 5cbb 46a3 093e fcd8 87bd
00000220: adaa df3b 6cb5 d7bc 89a4 a53d 8d4e c5bb
00000230: 650b 6c3d 5e77 1ebd 108b 803d 429d 413d
00000240: c3f8 1b3c 279a 36bd e860 34bd 181e d1bd
00000250: 4b62 7a3b 22d1 87bd 45dd 8abc 833a 773d
00000260: 9aeb fabc b557 c93d feae f2bd e6c5 b83d
00000270: 0b7c 883d ed51 ad3c cb80 e4bc 0950 a33c
00000280: 2ff9 a33d cd91 1dbd 6ad1 4d3c 239a d0bb
00000290: 7829 d13d 801f 36bd 0115 1abd 6851 e6bd
000002a0: 1f38 9f3d 7681 173d a5bb 5dbd 6b99 9ebc
000002b0: 355e 91bd 4aec 73bb fba8 313c 3f54 08bd
000002c0: 3688 2cbc a7ea f2bd c8a1 823d cf47 fabd
000002d0: 7340 8b3c ee52 063d 604d 903c f472 fa3c
000002e0: 2183 97bd f3f3 2e3d 2d8d e53c 84c9 723d
000002f0: 369a 3bbc e387 2c3d 3368 973c 5c1b 2fbd
00000300: ece9 3ebd ace8 0fbd 8e72 b03b 8ad6 503c
00000310: d3a7 07bd e69a 073a 2ca5 3d3d 8fd0 3c3d
00000320: fee6 6f3d 235f a2bc 280b 783d d2b1 74bd
00000330: 644d 2c3d c10f 31bd c54c 7d3d 2d66 c13d
00000340: 33f0 ab3d 7d9b 79bb b646 d93d b2ae 443c
00000350: 0b52 8a3d e92b 933d 9fc2 2a3d e268 433d
00000360: 95f0 61bd 26be 043c 8348 0cbd ccc4 913c
00000370: a685 fdbb 76c7 72bd 016a 443d 9b63 c23d
00000380: 0618 8ebc 0ae1 a3bc d43e 22bc e934 8ebd
00000390: 876b ccbd 9c34 a93c d893 1f3c 941f 08bd
000003a0: 4d5c febc 81e3 b3bc d0f6 713d da0e 72bd
000003b0: 52de acbd 8a66 eb3c 1041 31bd fd5a 063d
000003c0: 39a6 4dbd efc9 39bd d1d1 8fb9 bd07 8b3c
000003d0: 4ee8 a6bd 884b a6bd 9b70 86bd cd46 b83c
000003e0: 6bc6 843d 3c6a 053e 2ca9 863d dbb7 6d3d
000003f0: a583 8ebc 1839 073d 2e1a dc3c 91e5 de3d
-0.117905796 -0.064275876 0.042654008 0.06328981 -0.045637295 0.026524132 -0.0105997175 -0.015420142
0.042937953 0.11054499 0.074228406 0.037842613 0.054153997 0.106204644 -0.07096928 -0.0040592896
0.032502614 -0.02819516 0.04539084 -0.052964862 -0.07515399 -0.01224142 -0.003639786 0.09424835
-0.008330214 -0.08906915 0.053839497 -0.05632129 0.034635875 -0.11973825 0.019050928 0.029055769
-0.018344184 0.09086172 0.02740475 -0.088099256 0.033092007 -0.01817888 0.047336347 -0.12564394
-0.006717417 0.00655807 0.05229963 -0.036745418 0.039268225 0.01212351 0.0024359222 0.05150311
0.013325424 -0.06822386 -0.026890742 -0.014976191 -0.038796652 -0.025170581 -0.012844638 -0.0998384
-0.013586258 0.056856796 -0.029968483 0.024769543 0.02299602 0.007351272 -0.051340185 0.059899446
0.021042896 -0.05485136 0.06293172 -0.08106005 -0.036878627 -0.056779664 -0.027876105 0.066817604
0.029325198 -0.069691315 -0.062144548 0.082275815 -0.0059698303 0.009434583 0.03338247 0.016646804
0.010911459 0.0055370387 0.002057415 0.061550256 0.05534275 0.05984177 -0.052765034 -0.05248989
-0.008729972 0.119999565 -0.019147595 -0.08512722 -0.033410527 -0.048911527 0.0078013744 -0.043779455
-0.030062852 0.03818661 -0.027225854 -0.005663092 -0.046537906 0.016771033 -0.014006371 -0.067918316
-0.0021544204 0.07070371 0.07270908 0.055579428 -0.124447115 -0.05399639 0.023409061 0.06855657
0.034007415 -0.05040035 0.016050965 0.0013543654 0.0015459096 -0.0017658497 -0.11052833 -0.04407111
0.00574725 0.029361645 0.061924744 0.004673114 -0.088419996 -0.016099636 -0.047474064 0.032189194
0.0484446 -0.017773634 0.017664725 0.04854122 -0.05653216 -0.0033652228 0.1344119 -0.06633183
0.006825766 -0.026331626 0.08088023 -0.006021327 0.057628054 -0.038688056 0.06276524 0.047269113
0.009519759 -0.044580605 -0.04403773 -0.10210818 0.003820556 -0.06631686 -0.016951213 0.060358535
-0.030629922 0.09831182 -0.11849783 0.09022121 0.06664284 0.02115723 -0.027893445 0.019935625
0.080065124 -0.038469125 0.012562135 -0.006366031 0.10212988 -0.044463634 -0.037617687 -0.11245996
0.07774376 0.036988698 -0.05413403 -0.019360265 -0.07098047 -0.0037219697 0.010843511 -0.03328347
-0.010530522 -0.11861163 0.063785136 -0.12220728 0.016998505 0.03279393 0.01761502 0.030572392
-0.07398058 0.042713117 0.02802142 0.05927421 -0.011450341 0.04212178 0.018482303 -0.0427507
-0.046609804 -0.035134003 0.0053847497 0.012746463 -0.033119034 0.0005172923 0.0463001 0.046097334
0.0585699 -0.019820755 0.060557514 -0.059739895 0.042065993 -0.043227915 0.06184079 0.094433166
0.08395424 -0.0038087063 0.1060919 0.012004541 0.0675393 0.071861096 0.04168951 0.047707446
-0.055161078 0.008101976 -0.03424884 0.017794035 -0.0077368794 -0.059272252 0.047952656 0.094916545
-0.01734544 -0.020004768 -0.009902675 -0.069436856 -0.09981447 0.020654969 0.009739839 -0.03323324
-0.031049872 -0.021959068 0.05907327 -0.059096195 -0.08440842 0.028735418 -0.04327494 0.032801617
-0.05020735 -0.045358595 -0.0002743141 0.016971463 -0.08149777 -0.08119875 -0.065644465 0.022494698
0.06483158 0.13028806 0.06575236 0.058036666 -0.017396757 0.033013433 0.026867952 0.1088363

bias f4 [256]
00000000: 0ff6 07bb 8753 1bbd 268c 593c d9ce 62ba
00000010: e65e 263d add8 e43c 6773 033d 9c4b 00bd
00000020: 08bf 203d 08d4 663d f5bc cdb8 4184 d23c
00000030: 5ef5 85bb d17f 12bd c1b4 32bd ac53 36bd
00000040: f41a 7c3d 78c5 92bc 9c1d 4c3c 7b2c f53c
00000050: 6420 d8bc 1331 ccbc 976e cdbc 52e4 2cbc
00000060: 44f2 c83d 2c09 5c3d 517a dcbc df69 a0bd
00000070: ea05 24bd 4aea d3bb 250e 47bc b282 2abd
00000080: 11de ca3b 0173 23bd c25a 333d 5ecc abbc
00000090: bbf2 233d 4971 58bd 816d 9e3d 7bbd fabb
000000a0: e5c9 993c a965 3ebd 6810 d1bc a8ca 4a3c
000000b0: 87ee e0bc 66cd 7b3d 4f54 bdbb b1f2 18bd
000000c0: b0e5 fa3c 74fa aabb 52f2 193d ab85 1d3c
000000d0: b605 a13c 363a 99bd e255 72bd fda9 4ebd
000000e0: deff 1a3b a25f 053d 2a38 bb3b 7817 c63c
000000f0: 8bdf 6d3c fdca aebc 2ce0 d93c 819a 90bd
00000100: de87 4bbd 8b58 80bd c8f4 d2bc bce9 a53c
00000110: d377 38bd 2242 2abb fe3d 11bc f081 3abd
00000120: a450 673d 9c96 4d3d 7d9e 1f3c 5534 163c
00000130: f9d3 963c 2cf6 ecbc 6db4 98bd f0ab ab3c
00000140: a2c5 8ebd df3c 6f3d 0a52 a7bb 3503 523b
00000150: d582 70bd c09b 533d 42ff 41bd c9a0 a93c
00000160: 42ec e13c ab41 413d 8637 56bc a8dc 0f3d
00000170: aa8c 153d f307 6d39 e4e6 83bd 97de 0f3d
00000180: 0f47 a0bd a130 40bc 7e07 693d 916c 38bb
00000190: 9550 523c db5b d9bc 6096 a23d ad36 f9bb
000001a0: 3ae4 e4bc 740a 07bc b961 593d 7b8a 72bd
000001b0: 53d3 233d 4084 de3c 3315 653d 7caf 48bd
000001c0: 5f17 2d3d 626a 853d 67e3 24bd 2227 4dbd
000001d0: 49fa 393d 8bd2 6e3b db10 1ebd e491 dc3c
000001e0: 23dd 793d da4d 4cbd c410 8e3d 9b1a bc3d
000001f0: 4f4d d33c 4fda 98bd 624a 233d 80f7 85bd
00000200: a827 50bd c48d f53c 20af 68bc 27bc 203d
00000210: 4863 d7bc c355 8dbd 30e0 db3d 9bc1 d23b
00000220: be96 1b3c 9a78 1b3d 09a8 b43d c847 b2bc
00000230: 7c33 033d a243 45bc 03a2 d0bc dbdb babb
00000240: 7687 a83d 4188 df3c f462 1abd 0543 663d
00000250: f68a 5aba aa21 c4bc f092 92bd f784 0cbd
00000260: c76b 84bd 616e 703d a91d 44bc 02ed 46bd
00000270: d4d7 90bd b78d 853c 59fd 8f3d 8670 bc3c
00000280: 9c29 293d d190 493c 6a84 df3c 8614 a2bc
00000290: 9fc5 3ebb 2f63 a13d db52 243c 7df8 f3ba
000002a0: aa4c febc 7cbf e6ba 51b9 2f3b 69ce 72bd
000002b0: 08b9 a9bc 9a0a 14bd 5572 d03b ad35 8c3c
000002c0: 79df 98ba 1293 15ba f204 57bd feb3 a2bd
000002d0: ec27 813a 76e1 b7bd ad52 e03c 31fd 15bc
000002e0: 26d9 d9bc 995d 793d 53bf 18bc 2566 54bd
000002f0: baf1 f5bc f0be 373d 0c88 863d 82a7 d5bc
00000300: 9e6b 56bd 310e 973a 7bb6 afbb c0ed 05bd
00000310: 33e6 12bd aeab 8e3b e0cc 683b 6bbd 8cbd
00000320: bacf 5abd e467 4c3d db8a a13c 9be3 c53c
00000330: bb35 22bd 829e be3d e011 9cbb f2f2 0ebd
00000340: e8b5 41bd 628b ab3c d3f3 3abd 7f05 e4bb
00000350: a1f5 5abd af42 0abd 2684 4c3d c250 5fbd
00000360: 72c3 1cbd b754 103d 27de 7a3d c6ce d83a
00000370: 337d 35bd a767 67bc e9b4 9e3d 7b3f a0bc
00000380: 3bcf 1cbd 5322 82bc 3b9b 2b3d 32c2 48bc
00000390: ed1d 49bc b0cc 4cbd fbbb a6bc 0dd5 a0bc
000003a0: d773 9bbd 0300 2a3c af16 a5bd 81c3 22bd
000003b0: af16 49bd 61ae dabb 8888 8abd 977f 06bd
000003c0: d9ba 25bd 124e 9dba 2b58 4e3d 76f4 923c
000003d0: bdd3 f3bc 581d 413d e295 ae3d 99a3 353c
000003e0: bf61 e3bb 05d1 86bd ac3c e03c db83 a23c
000003f0: 81dc 403d f86b 5c3c 2bbe fabb 6177 99bc
-0.0020746028 -0.037921455 0.013278043 -0.00086520385 0.040617846 0.02793535 0.032092478 -0.031322107
0.03924468 0.056354553 -9.810358e-05 0.02569783 -0.004088088 -0.035766426 -0.04362941 -0.04451339
0.061549142 -0.017916426 0.012458231 0.029928437 -0.026382633 -0.024925744 -0.025077147 -0.010552483
0.098118335 0.053719684 -0.026913794 -0.07832693 -0.040044703 -0.0064671384 -0.012149368 -0.041628547
0.006191023 -0.0399046 0.043787725 -0.020971473 0.040026408 -0.052842412 0.0773573 -0.0076519824
0.018773029 -0.04648367 -0.025520518 0.012377419 -0.027457489 0.06147518 -0.0057778726 -0.037340824
0.030627102 -0.0052178446 0.03758461 0.009614388 0.019656043 -0.07481806 -0.059163935 -0.050455082
0.0023651044 0.032561906 0.0057134824 0.024181113 0.014518629 -0.021337027 0.026596151 -0.07060719
-0.04969012 -0.06266888 -0.025751486 0.020253055 -0.04503615 -0.002597936 -0.008864878 -0.045534074
0.05647339 0.05019246 0.009742376 0.00916775 0.018411623 -0.028925978 -0.074562885 0.02095601
-0.06971289 0.05840766 -0.0051062154 0.0032045369 -0.05871852 0.051662207 -0.047362573 0.020706551
0.027578477 0.047181766 -0.013074761 0.035122544 0.0365111 0.00022605043 -0.06440523 0.035124388
-0.07826053 -0.011730344 0.05689191 -0.0028140882 0.012836595 -0.026533058 0.07938838 -0.007605395
-0.027940858 -0.008242238 0.05307171 -0.059214097 0.039996456 0.027162671 0.05592842 -0.04899548
0.042258617 0.065144315 -0.04025593 -0.050086148 0.045404706 0.0036441411 -0.038590293 0.026925035
0.061001908 -0.049878933 0.069367915 0.09184762 0.0257937 -0.07463514 0.03986586 -0.065413475
-0.05081907 0.029974826 -0.014201909 0.039241936 -0.026292458 -0.069011234 0.1073612 0.006431771
0.009496389 0.03795681 0.08821113 -0.021762744 0.03203152 -0.012040051 -0.025467878 -0.0057024783
0.08228962 0.02728665 -0.037692025 0.05621626 -0.0008336747 -0.023941834 -0.07156932 -0.034306493
-0.064658694 0.058699016 -0.011969962 -0.048565872 -0.07072416 0.016302926 0.07030744 0.023002874
0.041299447 0.012302593 0.02728482 -0.019785177 -0.002910949 0.07880246 0.01002952 -0.0018613484
-0.031042416 -0.0017604674 0.0026813338 -0.05927888 -0.020718113 -0.036142923 0.0063612857 0.017115438
-0.001166328 -0.0005705814 -0.05249495 -0.07944487 0.0009853817 -0.0897855 0.027383173 -0.009154604
-0.026592802 0.060880277 -0.009322959 -0.051855225 -0.03002249 0.044859827 0.06568918 -0.02608085
-0.052348725 0.0011524615 -0.0053623295 -0.03269744 -0.035864066 0.004353962 0.0035522506 -0.06872066
-0.05342076 0.049903765 0.019719532 0.024156382 -0.039602023 0.09307577 -0.004762873 -0.03489966
-0.04729262 0.020940486 -0.045642685 -0.006958663 -0.053456906 -0.033755 0.049930714 -0.054520376
-0.03827233 0.03523704 0.061247017 0.0016541115 -0.044308852 -0.014123834 0.077493496 -0.01956152
-0.038283568 -0.015885508 0.041896086 -0.012253331 -0.012275201 -0.049999893 -0.020353308 -0.01963284
-0.07590454 0.010375979 -0.08060967 -0.03973723 -0.0490939 -0.0066736196 -0.067643225 -0.032836523
-0.040461395 -0.0012001416 0.050377052 0.017938834 -0.02976405 0.047147125 0.08524682 0.011086368
-0.0069391425 -0.06582836 0.02737268 0.019838264 0.04708529 0.013453476 -0.0076520643 -0.018733682

weight f4 [62, 256]
00000000: 64bb 7d3c 4a2c 573d 321e 0c3d 3540 01be
00000010: 5317 62bc bbb7 c4bd c6ff 28be c333 a23d
00000020: 1055 3b3d 4c9c 89be b246 493c 7696 a6be
00000030: 1387 57bd e6d3 823d 6f0f 263a deb9 74bb
00000040: ba35 c0bb 9348 e23c 8923 69bd 79fe 153d
00000050: 3034 9cbc e88d a13a c768 9d3d bcac 29be
00000060: c479 433c 48d4 0ebe cf2e 0bbe b7d7 4c3d
00000070: fd7e 45be 7fde 5b3d 2940 373d ec30 3dbd
00000080: 2cf0 053d 4342 30bd bc23 453d 9d6c 243d
00000090: 9117 07bd 8e3b b63d 5609 dbbd 4be1 5bbd
000000a0: cfed a1bb fa7a 7fbd 6b28 cd3c 3ffd 23be
000000b0: e99d 4dbe fcbe efbd 8ce3 45be 7baa 9d3c
000000c0: c46f 8f3c bfea 9b3d 0f5b 7f3d a73c 193b
000000d0: 2c17 093d 94c8 50bd ebf3 d0bd a2a7 06bd
000000e0: 4671 40bb 588d 37bd 01c4 65bd aa93 12bd
000000f0: cc61 8ebd c76e 11bd 0636 73bd 16a0 3c3d
00000100: b69c aabb dc8e 97bd e97d cabd f45c 6ebd
00000110: 3c0b 01be f8d7 0b3d eff4 eebc 4ad5 d6bd
00000120: dcaa 0a3d d3c2 f3bb d44d f5bd 70a2 af3d
00000130: 99f6 6cbd e077 8ebd f224 503d fa2e 473d
00000140: 36af 6b3d 4cf5 29bd 7fe9 5a3d 15eb 863d
00000150: 1504 85bd f9a1 6bbc 7910 e53d 25f2 e1bc
00000160: b934 9fbd fbf2 4fbe b4ea 083d f067 19bd
00000170: a3c7 02bd ff5a b0bd fefa 3bbd c03f d13c
00000180: 7888 453d 55b1 153d a11e 0bbe 021a 8a3c
00000190: 7d64 0ebe 77f8 623d 7548 733d 857c e83b
000001a0: 6f35 89be 2fe8 cf3c 9ed6 e9bd 4878 7dbd
000001b0: 114e 6d3d 318c c3bd 2023 a5bd 245e 093d
000001c0: 4ebd 38be dfec 8a3c c30a c63c df0d 9fbc
000001d0: 7358 e73b aa9e 6a3d dc00 c73d 698f b7bd
000001e0: 4603 24bd 1ea1 263d 27dd afbd e87b 44b9
000001f0: cf29 303d 0277 81bc 0247 f9bc 8974 413d
00000200: b149 2dbe e467 6e3d e4f8 14bd 4bd7 493d
00000210: 0185 1cbe ef12 cc3c badf 85bd 025e 463d
00000220: cee9 f1bd b33e aa3d fdc7 12bc eb9d eabd
00000230: be65 5abe d1a8 ebbd 2670 3abe 389c 26bd
00000240: 279c c8bd 0354 16be 0133 833d 089d b23c
00000250: a002 793d 22a1 8dbd 599f ce3c deac 373d
00000260: 816d 76bd 6fbf 8c3d ae03 73be 53da 77bd
00000270: 44f1 cebd 5e8a 34bd 7ab6 afbb a8cc 9abd
00000280: 4cf0 f239 8be9 81bd 2661 5c3d f5f4 adbd
00000290: 9584 79bc 3288 21bd ff85 96bd 326b a8bc
000002a0: 50ea 783d e1fe f7bd 41ba 0dbe 06a0 803c
000002b0: 69a6 1c3d 5f7c b53c 1574 32bd 1d15 0bbd
000002c0: 0259 adbc 3812 5bbc 386c 6abe 790b 70bd
000002d0: f8e0 453d d96e d0bd 0d6c 0e3d b149 f33c
000002e0: 1337 b5bd 2144 4f3a 9a7f 0f3c 7ae0 79bd
000002f0: 4106 2abd fdab 33bb 3fd0 62bc dac7 6a3d
00000300: 1e7e 71ba 99ce b93d 840e 10be fc40 0cbd
00000310: e7c6 99bd 4a0c 123d 7a56 233d 1c03 79bd
00000320: a7cd 443d 60f0 96be a071 943c d7de 41bd
00000330: 831c 0abe 0d4a 3dbd 2b97 8dbd ce54 66bc
00000340: 652d 943d e1ee 1bbd a371 2cbd b391 3f3d
00000350: 0d9c 2bbe 0792 193a 2fa5 ccbc 40fa a5bd
00000360: 9dfd 50bd fee3 d43b f23d c73c 1ca8 4a3d
00000370: 40dc 903d 2e46 f1bc 4c67 b13c 6383 47bd
00000380: c44c 8fbd 18ad 733d ee76 0b3c 91a8 a03c
00000390: c552 643d 4a4e a5bd 2af2 c5bc a2ce 80bd
000003a0: 6d0a 2fbe 7337 f7bc df33 d1bd 9b32 2b3d
000003b0: f332 273d b9a4 023c e337 d43c 5d6a 693d
000003c0: 32b2 9e3d d3cd 29bc f02c 743d 6cac bb3c
000003d0: 6914 babc 041a ccbd e8f0 bd3c 45ec 5f3d
000003e0: 2647 7c3d 7ff3 b8bd d1f3 b1bb be20 f0bd
000003f0: c566 3f3d e20a bf3c 116a babd cabb cbb8
0.015486572 0.05253247 0.034208484 -0.1262215 -0.013799506 -0.09605356 -0.1650382 0.07920029
0.04573542 -0.26877058 0.0122849215 -0.32536668 -0.05261905 0.06388073 0.0006334697 -0.003734223
-0.0058657797 0.027622497 -0.056918655 0.036619637 -0.019067854 0.0012325617 0.07686 -0.16569799
0.011930887 -0.13948166 -0.13592075 0.05001041 -0.19286723 0.053678986 0.044738922 -0.046189234
0.03269975 -0.043031942 0.048129782 0.040142644 -0.03298146 0.08898078 -0.1069514 -0.053681653
-0.004941679 -0.06237314 0.025043687 -0.16014574 -0.20079769 -0.11706349 -0.19325083 0.01924633
0.017509349 0.07613134 0.0623427 0.00233821 0.033469364 -0.050972536 -0.10202774 -0.03287471
-0.0029364391 -0.04481253 -0.056095127 -0.035785355 -0.06952247 -0.035506036 -0.059377693 0.046051107
-0.0052066697 -0.07400295 -0.09887297 -0.058194116 -0.12601942 0.03414151 -0.029169528 -0.104899004
0.03385435 -0.0074389963 -0.11977735 0.08575904 -0.05785236 -0.06956458 0.050816484 0.048628785
0.05754014 -0.0414937 0.053445335 0.06587807 -0.06494919 -0.014381879 0.111847825 -0.027581284
-0.07773728 -0.20307533 0.033426955 -0.03745264 -0.03192867 -0.08611106 -0.04589366 0.025543094
0.04822585 0.03654607 -0.13585903 0.016858105 -0.1390552 0.055412736 0.059395272 0.007094922
-0.2679858 0.025379268 -0.11417888 -0.061882287 0.057935778 -0.09548224 -0.0806334 0.033537045
-0.18040964 0.016958652 0.024175053 -0.019415794 0.0070601045 0.05728022 0.09716961 -0.089629
-0.040042184 0.040680997 -0.08587103 -0.00018738175 0.04300862 -0.015803818 -0.030429367 0.047230277
-0.16922642 0.058204547 -0.036370173 0.049277585 -0.15285112 0.024911372 -0.06536813 0.048429497
-0.11812173 0.0831274 -0.008958814 -0.11455902 -0.21327874 -0.115068085 -0.18206844 -0.040676326
-0.09795409 -0.14680485 0.064062126 0.021803394 0.06079352 -0.06915499 0.025222467 0.044842593
-0.060163025 0.068724506 -0.23731872 -0.060510945 -0.101046115 -0.04407727 -0.005362329 -0.07558566
0.00046336872 -0.06343373 0.053803585 -0.084939875 -0.015229364 -0.039436527 -0.073497765 -0.020558927
0.060770333 -0.12109161 -0.13840581 0.015701305 0.03824464 0.022154031 -0.043567736 -0.033955682
-0.021160606 -0.013371043 -0.22892845 -0.05860469 0.04831025 -0.101773925 0.034771014 0.029698225
-0.08848395 0.00079065753 0.00875845 -0.061005093 -0.04150987 -0.0027415745 -0.013843595 0.0573195
-0.00092122133 0.090726085 -0.14068037 -0.03424166 -0.07508641 0.03565625 0.039877392 -0.06079398
0.048047688 -0.29480267 0.018120587 -0.047331657 -0.13487439 -0.0462132 -0.069135986 -0.014058305
0.07235221 -0.03806961 -0.04210056 0.04676981 -0.16758747 0.00058582466 -0.02498111 -0.08104372
-0.051023114 0.0064969053 0.02432153 0.049476728 0.07073259 -0.02945241 0.021655701 -0.048709285
-0.06997064 0.059491247 0.008512242 0.019611629 0.055742998 -0.08071573 -0.024163324 -0.06289412
-0.17093821 -0.030177807 -0.10214972 0.041796308 0.040820073 0.007973843 0.025905555 0.0569862
0.07748832 -0.010364014 0.05961317 0.022909366 -0.02271481 -0.099658996 0.023186162 0.054668684
0.06159129 -0.09030818 -0.0054306765 -0.11724995 0.046728868 0.023320619 -0.09102262 -9.714773e-05
