models/model_B.pt (torch, 451559 bytes, 22 tensors)

weight f4 [16, 1, 3, 3]
0.049383126 -0.07709581 0.2707544 0.14420542 0.103371516 -0.21085799 0.06486365 0.066626735
-0.26779088 -0.01026626 0.03779359 -0.29629487 0.11635332 0.09122124 0.13974291 0.06428962
0.15182596 0.103557914 -0.2685361 0.29486826 0.0401365 -0.36694163 -0.30089456 -0.09109662
-0.2067463 -0.1954707 0.24645922 -0.2421843 0.24476424 0.0022362971 0.21225972 0.09300442
-0.018824665 -0.16578616 0.019670783 -0.33199897 -0.17226572 0.16988435 0.08464636 -0.21468818
0.12050497 0.010249718 -0.0279371 0.13654207 -0.18100195 0.122865245 -0.066726595 -0.095033035
-0.1379398 -0.29243922 0.029382782 0.23006795 0.2815225 -0.24510832 0.15816441 0.25847474
-0.18086721 -0.233771 -0.17710133 -0.06841743 -0.020547552 0.14520316 0.097710304 -0.2564192
-0.26019564 0.3062757 0.15590614 0.2416524 -0.03007738 -0.008491401 0.10465545 0.1188894
-0.3291441 0.04830431 -0.13099034 -0.22728184 0.16317873 -0.058358427 -0.17109407 0.17237131
-0.07967378 0.03201915 0.012830871 -0.2178903 -0.062446136 -0.23058724 -0.06633018 0.16413838
0.12834495 0.008297981 -0.2684409 0.30489632 0.21492401 0.28027144 -0.049805313 -0.22101848
-0.30143818 0.04459356 -0.006121502 0.014590164 -0.22407962 0.28030849 -0.19546728 0.21110049
-0.2107361 0.30182165 -0.050800093 -0.11921469 -0.07077883 0.01831706 0.21722306 -0.09631193
0.130079 0.21719386 -0.17208262 0.07241306 0.28534406 -0.11221071 -0.22363512 0.14330184
0.057250466 0.26453128 -0.23526432 0.14550562 0.20583333 0.056210365 -0.1695621 -0.120627694
-0.026878487 0.1792442 -0.03760126 -0.09641211 0.22027715 -0.305681 -0.004889111 -0.047376942
0.16872577 0.14212929 -0.1719841 -0.044006236 0.23373754 -0.24076909 -0.24475217 -0.062214185
00000000: f645 4a3d 68e4 9dbd 52a0 8a3e 96aa 133e
00000010: 72b4 d33d 28eb 57be 3cd7 843d 9973 883d
00000020: e31b 89be d133 28bc 74cd 1a3d f6b3 97be
00000030: a64a ee3d 34d2 ba3d c418 0f3e 47aa 833d
00000040: 4478 1b3e 2c16 d43d 907d 89be f9f8 963e
00000050: 2c66 243d c6df bbbe da0e 9abe dd90 babd
00000060: 4db5 53be 7929 48be ce5f 7c3e 29ff 77be
00000070: 7aa3 7a3e d78e 123b 9d5a 593e 1a79 be3d
00000080: 2f36 9abc d9c3 29be 9f24 a13c c5fb a9be
00000090: 6d66 30be 2af6 2d3e 125b ad3d 38d7 5bbe
000000a0: 4fcb f63d 6fee 273c 58dc e4bc afd1 0b3e
000000b0: 9358 39be c6a0 fb3d f4a7 88bd aea0 c2bd
000000c0: 1740 0dbe 98ba 95be 29b4 f03c ef96 6b3e
000000d0: b823 903e adfd 7abe daf5 213e cd56 843e
000000e0: 4135 39be aa61 6fbe 0d5a 35be 701e 8cbd
000000f0: 5753 a8bc 23b0 143e 571c c83d 6149 83be
00000100: 5d38 85be 2bd0 9c3e dca5 1f3e ba73 773e
00000110: d664 f6bc 841f 0bbc 9955 d63d 497c f33d
00000120: 9385 a8be bdda 453d 5522 06be 92bc 68be
00000130: 5318 273e 3f09 6fbd 4933 2fbe 1b82 303e
00000140: 022c a3bd 8326 033d 9338 523c a31e 5fbe
00000150: 85c7 7fbd 101f 6cbe 1ed8 87bd e413 283e
00000160: dc6c 033e 41f4 073c 1671 89be 5f1b 9c3e
00000170: 0a15 5c3e bd7f 8f3e a800 4cbd ab52 62be
00000180: 1b56 9abe bda7 363d e196 c8bb 950b 6f3c
00000190: 2175 65be 9884 8f3e 9328 48be ba2a 583e
000001a0: 34cb 57be 5e88 9a3e c213 50bd d526 f4bd
000001b0: 7ef4 90bd a90d 963c b96f 5e3e 303f c5bd
000001c0: 6e33 053e 1168 5e3e 6d36 30be 4c4d 943d
000001d0: 9e18 923e bbce e5bd 9b00 65be b8bd 123e
000001e0: 777f 6a3d a570 873e 21e9 70be 6dff 143e
000001f0: f9c5 523e d73c 663d b0a1 2dbe a70b f7bd
00000200: 4630 dcbc cb8b 373e c703 1abd b673 c5bd
00000210: 5590 613e 3882 9cbe d634 a0bb 530e 42bd
00000220: 73c6 2c3e 578a 113e 9a1c 30be e23f 34bd
00000230: e558 6f3e 2c8c 76be 50a0 7abe 4dd4 7ebd

bias f4 [16]
0.16096455 -0.26915646 0.15863922 0.24560687 0.13296041 0.26993775 0.3040237 0.274839
0.08621498 -0.19732547 0.19365855 0.16771856 0.22435232 -0.22374275 -0.27043927 -0.088281795
00000000: e4d3 243e e0ce 89be 5272 223e 5e80 7b3e
00000010: c626 083e 4835 8a3e ffa8 9b3e b3b7 8c3e
00000020: 7b91 b03d b00f 4abe 6d4e 463e 6abe 2b3e
00000030: 9dbc 653e d21c 65be 0477 8abe 16cd b4bd

weight f4 [16]
0.941912 0.9551182 0.96071374 0.93980116 0.93057954 0.8673629 0.94908255 0.87381476
0.99775106 0.9713025 0.9113636 0.9053138 0.9002313 0.94306636 0.95813847 0.97900236
00000000: 2521 713f a082 743f 56f1 753f cf96 703f
00000010: 763a 6e3f 7f0b 5e3f 13f7 723f 53b2 5f3f
00000020: 9d6c 7f3f 48a7 783f 204f 693f a5c2 673f
00000030: 8f75 663f cc6c 713f 9048 753f e69f 7a3f

bias f4 [16]
-0.040600445 -0.03905619 0.011386056 -0.032000348 0.04396096 0.009414175 0.03219819 -0.046262555
-0.057403907 0.07110911 -0.022894224 -0.029034143 -0.05072723 -0.0041742013 0.10809472 0.053780347
00000000: a74c 26bd 62f9 1fbd 958c 3a3c cc12 03bd
00000010: 6810 343d e93d 1a3c 40e2 033d ce7d 3dbd
00000020: 5c20 6bbd a7a1 913d ab8c bbbc 03d9 edbc
00000030: 5bc7 4fbd bdc7 88bb c460 dd3d c848 5c3d

running_mean f4 [16]
0.21306372 0.03887188 0.088572584 0.17920402 0.10946531 0.21209028 0.29806396 0.40649536
0.03554124 2.7414464e-05 0.19419354 0.17139386 0.4396129 0.02833203 7.20719e-08 0.013084805
00000000: 602d 5a3e 1f38 1f3d 8b65 b53d 4281 373e
00000010: 592f e03d 322e 593e d79b 983e 2920 d03e
00000020: b193 113d 1df8 e537 acda 463e df81 2f3e
00000030: f114 e13e 9318 e83c f2c5 9a33 a661 563c

running_var f4 [16]
0.011302027 0.004466422 0.007439441 0.009613789 0.0037166611 0.012650575 0.0027467085 0.0329939
0.0016057297 4.1987872e-07 0.0073906104 0.0029322559 0.07869672 0.0026903988 5.383182e-10 0.0020397888
00000000: 232c 393c 105b 923b 8ec6 f33b 2783 1d3c
00000010: 3a93 733b 5b44 4f3c 1f02 343b 9d24 073d
00000020: 5977 d23a b16b e134 ef2c f23b 172b 403b
00000030: bf2b a13d 6751 303b c7f8 1330 faad 053b

weight f4 [32, 16, 3, 3]
0.02431524 -0.06903213 -0.040681496 0.076945715 -0.045199923 -0.069015816 -0.023066636 -0.016357059
0.006300542 0.044105817 0.081536114 0.10813641 0.05132548 -0.019621091 -0.007398614 -0.063736394
-0.008184831 0.068697646 -0.009360085 0.0121782385 -0.08966129 -0.037226714 -0.008313647 -0.004209023
-0.03206249 -0.03596239 0.05387192 0.08287198 -0.020535283 0.064937286 -0.057534937 0.057329316
-0.040439438 -0.004667104 0.04999794 -0.058028854 0.03801275 0.06957355 0.055948358 0.03639453
-0.038708255 0.06302443 -0.02109779 -0.034253128 0.044298433 -0.020001234 0.06526785 -0.052360624
0.06188252 0.015247499 -0.09096411 -0.05396413 -0.009797624 0.0457392 -0.024568344 0.058712315
0.0024382647 -0.09309259 -0.08713576 0.031010237 -0.042939037 -0.03862056 -0.014065237 0.07031173
0.0341946 0.07749155 0.03014098 -0.058713816 0.04062738 0.052336413 0.050959963 0.10615854
-0.045939922 0.07813175 0.11831373 0.06391178 0.02351736 0.08417782 0.04907745 0.009481758
0.039484456 -0.007033634 0.11153599 -0.027802251 -0.061801832 -0.11954225 0.04039525 -0.1489396
-0.0976647 -0.1465226 -0.021082576 0.003610766 0.05919019 0.03831956 0.08125926 0.07348255
-0.06543475 0.045324545 -0.023975044 0.062143143 -0.058752075 0.06759852 -0.03928994 -0.041982178
-0.06352887 0.006241304 0.07792823 0.038160622 -0.016885024 -0.0056082406 0.028106049 0.0278279
0.05192467 -0.0069504995 0.05999629 0.07421836 0.049534503 -0.0043068235 0.095587015 0.026374035
-0.054105733 0.1071928 0.030031905 -0.022021826 -0.021163583 0.06939872 -0.117845096 0.008278327
-0.14261065 -0.019259868 -0.066904664 -0.15363711 -0.08742 -0.15127482 -0.12099532 -0.006942683
-0.05587313 -0.028184595 -0.025851438 -0.071996264 0.054991942 -0.038639087 -0.023563636 -0.053315286
0.04207688 0.060878742 0.09551137 0.079325646 -0.004762733 -0.013298322 -0.019702882 0.023156235
-0.022778247 -0.005208949 -0.04869742 0.0950062 0.07383738 0.014996971 0.04213495 -0.02232616
0.012123207 0.04457291 0.029538697 0.07280135 -0.042983696 0.011891818 0.0122813145 -0.02952588
-0.07566502 0.021080898 0.08164575 -0.0013923455 -0.096882775 0.07418362 -0.056261215 -0.03223782
-0.016583994 -0.08108574 -0.010950751 -0.056489747 0.093647644 -0.045583438 -0.099309474 -0.09026324
-0.058413204 0.04590214 -0.09041077 0.033510465 -0.009657656 -0.059311997 0.07183435 -0.07382049
-0.024351364 -0.022870244 -0.00024483097 0.011694158 0.027330535 -0.035565987 0.061149143 -0.064093575
-0.021147812 -0.008322756 0.016311554 0.014049629 -0.031438176 -0.028962653 0.055574123 -0.03654042
-0.061452698 0.08350023 0.071519755 0.09932768 0.007148054 0.07682117 -0.0020048895 0.026171148
-0.07574783 0.056124758 0.041927792 -0.06710122 0.042449214 -0.06974188 -0.03753662 0.08266064
0.015066636 0.010688279 0.0424967 0.056805402 -0.061037935 0.021681722 -0.037951812 -0.08145206
-0.06457703 -0.0990502 0.0021207428 0.009272651 -0.033382226 -0.04909511 0.0607486 0.0334559
-0.07283915 0.021316316 -0.0042795516 -0.045469496 0.08822745 -0.06112382 -0.030172093 -0.06152874
-0.04910632 0.0015400333 -0.006436759 -0.11547835 -0.00026666746 0.061355125 0.03869179 0.014585076
00000000: c130 c73c b860 8dbd a4a1 26bd b795 9d3d
00000010: 8e23 39bd 2a58 8dbd 3ef6 bcbc 3dff 85bc
00000020: c774 ce3b 4da8 343d 68fc a63d 9f76 dd3d
00000030: ab3a 523d 69bc a0bc 1370 f2bb 3a88 82bd
00000040: ab19 06bc 5ab1 8c3d 0b5b 19bc 3c87 473c
00000050: 57a0 b7bd 0a7b 18bd f635 08bc d8eb 89bb
00000060: f553 03bd 4d4d 13bd cda8 5c3d c9b8 a93d
00000070: 9c39 a8bc d7fd 843d c1a9 6bbd 25d2 6a3d
00000080: d3a3 25bd 82ee 98bb a4ca 4c3d aaaf 6dbd
00000090: 42b3 1b3d 947c 8e3d 1b2a 653d 6e12 153d
000000a0: 8c8c 1ebd f412 813d 46d5 acbc 024d 0cbd
000000b0: 4672 353d a1d9 a3bc 27ab 853d 1878 56bd
000000c0: 8678 7d3d a5d0 793c 644b babd 7e09 5dbd
000000d0: 3786 20bc 0759 3b3d 8d43 c9bc 537c 703d
000000e0: 4bcb 1f3b 54a7 bebd 3c74 b2bd 2e09 fe3c
000000f0: d8e0 2fbd 9830 1ebd e171 66bc 99ff 8f3d
00000100: a30f 0c3d e4b3 9e3d 37ea f63c e67d 70bd
00000110: e568 263d b55e 563d 65bb 503d a669 d93d
00000120: 802b 3cbd 8a03 a03d 784e f23d 2ee4 823d
00000130: 7ba7 c03c 6c65 ac3d 7005 493d 6059 1b3c
00000140: 74ba 213d 667a e6bb fb6c e43d 8cc1 e3bc
00000150: eb23 7dbd 91d2 f4bd 7d75 253d 9f83 18be
00000160: 6e04 c8bd 050a 16be 5eb5 acbc 9aa2 6c3b
00000170: 6a71 723d f9f4 1c3d 416b a63d 057e 963d
00000180: a702 86bd 3ba6 393d 5067 c4bc cf89 7e3d
00000190: 04a6 70bd 1871 8a3d 7dee 20bd 81f5 2bbd
000001a0: 6d1b 82bd da83 cc3b d698 9f3d 504e 1c3d
000001b0: 7652 8abc 55c5 b7bb a83e e63c 56f7 e33c
000001c0: f6ae 543d 04c1 e3bb abbe 753d ccff 973d
000001d0: b1e4 4a3d 4120 8dbb 20c3 c33d 5c0e d83c
000001e0: f99d 5dbd e687 db3d 7805 f63c 1e67 b4bc
000001f0: 405f adbc eb20 8e3d c558 f1bd d2a1 073c
00000200: 8708 12be dfc6 9dbc 5005 89bd 0c53 1dbe
00000210: 4209 b3bd c9e7 1abe 65cc f7bd 727f e3bb
00000220: 39db 64bd 61e3 e6bc 65c6 d3bc c772 93bd
00000230: 3b3f 613d 0544 1ebd 8708 c1bc 2161 5abd
00000240: ce58 2c3d fd5b 793d 779b c33d 7c75 a23d
00000250: b310 9cbb 35e1 59bc f067 a1bc 25b2 bd3c
00000260: 7299 babc d5af aabb f276 47bd 9c92 c23d
00000270: 0d38 973d dbb5 753c b395 2c3d 5ae5 b6bc
00000280: 6aa0 463c 1592 363d 23fb f13c e018 953d
00000290: ac0f 30bd e6d5 423c 9137 493c 42e0 f1bc
000002a0: 43f6 9abd d9b1 ac3c e335 a73d 5d7f b6ba
000002b0: 7a6a c6bd 95ed 973d 2972 66bd ce0b 04bd
000002c0: 28db 87bc 4810 a6bd c76a 33bc cb61 67bd
000002d0: 56ca bf3d b3b5 3abd c462 cbbd efdb b8bd
000002e0: af42 6fbd e203 3c3d 4829 b9bd 4542 093d
000002f0: 253b 1ebc 23f1 72bd e31d 933d 322f 97bd
00000300: 837c c7bc 615a bbbc a85c 80b9 db98 3f3c
00000310: 49e4 df3c a4ad 11bd 8677 7a3d 7e43 83bd
00000320: 2d3e adbc 2b5c 08bc cf9f 853c 6a30 663c
00000330: 51c5 00bd 1643 edbc b1a1 633d 68ab 15bd
00000340: d3b5 7bbd 2b02 ab3d f378 923d 506c cb3d
00000350: 393a ea3b 6b54 9d3d 7764 03bb e064 d63c
00000360: ae21 9bbd 13e3 653d 7abc 2b3d 5d6c 89bd
00000370: 3adf 2d3d d5d4 8ebd 00c0 19bd fb49 a93d
00000380: 0dda 763c e41d 2f3c 0511 2e3d c8ac 683d
00000390: ea02 7abd de9d b13c 5c73 1bbd 56d0 a6bd
000003a0: f640 84bd d5da cabd 29fc 0a3b 51ec 173c
000003b0: cdbb 08bd f417 49bd 86d3 783d 0e09 093d
000003c0: b12c 95bd 8e9f ae3c 7b3b 8cbb 393e 3abd
000003d0: 98b0 b43d f85c 7abd 772b f7bc 8f05 7cbd
000003e0: b523 49bd f1da c93a 73eb d2bb ea7f ecbd
000003f0: 80cf 8bb9 834f 7b3d 487b 1e3d 3ef6 6e3c

bias f4 [32]
-0.1398598 -0.10951307 0.002830753 -0.03444476 0.08937677 -0.021170804 -0.039484352 -0.036974706
-0.06653873 -0.10898911 0.037807982 0.015451936 -0.10041391 0.01863701 -0.102009244 -0.01628059
-0.04240997 0.064384215 -0.043575052 -0.00059690414 -0.16864583 0.040211182 -0.020796943 0.028032698
-0.050143883 -0.056439947 0.019493917 0.03283506 0.0048219175 -0.048124228 -0.10352384 0.0175525
00000000: 6837 0fbe 6348 e0bd 2884 393b f315 0dbd
00000010: 2b0b b73d 656e adbc 58ba 21bd ca72 17bd
00000020: 7545 88bd af35 dfbd 8bdc 1a3d 1e2a 7d3c
00000030: cfa5 cdbd a5ac 983c 39ea d0bd df5e 85bc
00000040: 14b6 2dbd dfdb 833d c17b 32bd 8f79 1cba
00000050: 7eb1 2cbe 7bb4 243d 5a5e aabc d4a4 e53c
00000060: ac63 4dbd 932d 67bd b5b1 9f3c 0e7e 063d
00000070: 2d01 9e3b e91d 45bd 4f04 d4bd 43ca 8f3c

weight f4 [32]
0.9370696 0.8792347 0.8887943 0.90775985 0.92764366 0.8959275 0.8756376 0.958379
0.9602305 0.8977556 0.9539888 0.93616134 0.92069924 0.89285266 0.8888502 0.936226
0.9451026 0.9313717 0.8820672 0.92261475 0.908547 0.9191624 0.88946295 0.89936084
0.92247325 0.92990416 0.8963118 0.8518589 0.9660832 0.8904912 0.8938132 0.97103024
00000000: cbe3 6f3f 8615 613f 0688 633f f362 683f
00000010: 0e7a 6d3f 815b 653f c929 603f 5358 753f
00000020: abd1 753f 50d3 653f 9c38 743f 45a8 6f3f
00000030: f2b2 6b3f fe91 643f b08b 633f 82ac 6f3f
00000040: 3ef2 713f 606e 6e3f 28cf 613f 7b30 6c3f
00000050: 8996 683f 3a4e 6b3f d8b3 633f 833c 663f
00000060: 3527 6c3f 330e 6e3f b174 653f 6d13 5a3f
00000070: 3b51 773f 3bf7 633f f1d0 643f 7095 783f

bias f4 [32]
0.13197607 -0.022724083 0.06390034 -0.010179231 0.18341805 -0.042397995 -0.21373044 -0.12015274
0.20435247 -0.134868 0.22202669 0.20277081 0.28107834 0.29040226 0.25019357 0.27516243
-0.038662683 -0.17178664 0.01210888 -0.110988446 0.21446146 -0.08504833 -0.026209697 0.3465068
-0.28208244 0.21313787 0.25615853 -0.068287894 0.15536435 0.33473563 -0.19061773 0.27267933
00000000: bc24 073e db27 babc 2ede 823d cac6 26bc
00000010: f1d1 3b3e 85a9 2dbd 27dc 5abe a412 f6bd
00000020: c641 513e d61a 0abe f75a 633e 27a3 4f3e
00000030: 80e9 8f3e 9baf 943e 5f19 803e 17e2 8c3e
00000040: c35c 1ebd d6e8 2fbe 5364 463c e94d e3bd
00000050: c99b 5b3e d22d aebd b8b5 d6bc 5769 b13e
00000060: 1c6d 90be d040 5a3e 3627 833e 86da 8bbd
00000070: d517 1f3e 7862 ab3e 4b31 43be a09c 8b3e

running_mean f4 [32]
0.13248195 0.27205512 0.2565017 0.1704749 0.20303257 0.2268344 0.4575483 0.10473622
0.11901957 0.15621841 0.25385273 0.18483183 0.09747181 0.15191615 0.13213529 0.22259742
0.16918586 0.28230944 0.21083164 0.3099769 0.13425726 0.24486534 0.1244896 0.26779422
0.2735201 0.19211513 0.3453077 0.30481076 0.29129207 0.16543713 0.16466233 0.19330652
00000000: 59a9 073e cf4a 8b3e 3154 833e f990 2e3e
00000010: c5e7 4f3e 4747 683e c543 ea3e f17f d63d
00000020: 88c0 f33d b8f7 1f3e fcf8 813e 8e44 3d3e
00000030: 4d9f c73d e88f 1b3e 794e 073e 94f0 633e
00000040: 0f3f 2d3e dd8a 903e 40e4 573e 4bb5 9e3e
00000050: bc7a 093e fbbd 7a3e 67f4 fe3d 531c 893e
00000060: d40a 8c3e d4b9 443e 2ccc b03e 2810 9c3e
00000070: 3c24 953e 5a68 293e 3e9d 283e 25f2 453e

running_var f4 [32]
0.08249459 0.22447121 0.074343085 0.095422305 0.052613873 0.08130018 0.25592044 0.036027927
0.052807353 0.07373695 0.15543915 0.047328103 0.068218976 0.07278652 0.09491008 0.18707779
0.04872316 0.14959654 0.106692895 0.12623799 0.063491076 0.1563316 0.06435912 0.23997584
0.115583874 0.107871994 0.15660901 0.188528 0.11683233 0.080604136 0.12645216 0.122447684
00000000: ecf2 a83d c8db 653e 3041 983d c56c c33d
00000010: a581 573d b580 a63d 0108 833e 0592 133d
00000020: 864c 583d 6603 973d 712b 1f3e 1ddb 413d
00000030: 64b6 8b3d 1911 953d 3760 c23d 5291 3f3e
00000040: f091 473d d62f 193e ce81 da3d 8844 013e
00000050: 9c07 823d 6415 203e b7ce 833d 3abc 753e
00000060: 3db7 ec3d feeb dc3d 1d5e 203e 7c0d 413e
00000070: ca45 ef3d c813 a53d ad7c 013e dac5 fa3d

weight f4 [64, 32, 3, 3]
-0.02099561 0.0006189053 -0.012013745 0.038895044 0.012366118 0.026947796 0.005022613 -0.010328169
-0.031032428 0.020192452 -0.028576057 -0.056242004 -0.015274423 0.0032656381 -0.01502336 0.016385797
0.013171848 0.007353842 -0.0467177 -0.031731907 0.045199987 0.035986874 -0.03199323 0.027093537
0.059836242 0.028230736 -0.039875343 -0.100664526 -0.07375645 -0.00087305414 0.04615919 0.024256896
0.046941306 -0.061740484 -0.061503626 -0.07412157 -0.047193587 -0.057911575 -0.069503754 -0.027701251
-0.07300144 -0.033255782 -0.015256673 -0.0307896 -0.033687573 0.004957241 -0.084716864 0.007629519
-0.015018522 -0.062208507 0.04576034 0.020532591 0.043208335 -0.011852829 0.023547398 -0.03105103
-0.075421706 0.029350607 0.038905293 -0.017365167 0.019428467 0.015527273 -0.021776497 -0.046802506
-0.03193291 -0.047043696 -0.016341725 0.045411468 0.017912589 0.0053827493 0.023267912 -0.05311539
-0.037942443 0.013365908 0.010595827 0.0017181745 0.06366124 -0.03961121 -0.060724698 0.051933754
-0.030577935 -0.0070690233 -0.02651619 -0.023565667 0.003158564 -0.022110054 -0.00853782 -0.019140901
-0.05546207 -0.011223032 -0.0072711688 -0.006669243 0.04969795 -0.040444978 0.010027048 0.008528743
-0.038206737 0.016045723 0.00052707683 -0.08784842 -0.060283974 -0.07195483 -0.00405828 -0.06935791
-0.067897975 -0.02133895 0.020379543 -0.054270662 0.01820505 -0.051676854 -0.01040967 -0.02628817
-0.01760878 0.04715147 0.01032023 0.07702175 -0.025037115 -0.012127001 0.018607978 -0.0035100502
-0.069112696 -0.0064847916 -0.018223532 -0.046837423 -0.075341344 -0.032760233 -0.076127455 -0.009363233
-0.04039166 0.04431461 0.05798967 -0.0046660267 -0.015505606 0.009701148 -0.009040396 0.054130636
0.03876453 0.026265642 -0.041739203 -0.016835677 -0.07549576 0.0110212285 0.010834711 -0.0709803
-0.008063951 0.008286084 -0.0005203448 0.03600644 0.08585531 0.03635664 0.00047136584 0.004430235
-0.0669015 -0.1141952 0.024175607 0.023197662 -0.020984897 -0.011612582 -0.014848793 0.00039136826
-0.012244348 -0.049468827 0.040976916 0.020424861 -0.049095843 0.021383312 0.003828449 -0.05284708
-0.002420033 -0.05026342 0.055740196 0.0152826095 -0.018672712 0.038790904 0.005732358 0.0029494052
0.032738812 0.04691604 0.03483579 0.040546767 -0.04697736 -0.00244324 0.06334335 0.02758873
0.014702423 0.035683557 -0.010815932 0.0014095963 0.03228566 -0.060031187 -0.014949403 0.079180166
-0.014431761 0.016686512 0.044312496 0.042817667 0.05462344 0.026440458 0.014330192 -0.048689984
-0.04511972 -0.022079695 0.03764157 0.07267972 -0.027829438 -0.002991882 -0.01287433 0.00053156307
-0.020889483 -0.020373432 -0.08902246 -0.021734228 -0.093879774 -0.068544164 0.0036980647 -0.017234428
-0.034165166 0.053176694 0.0036127896 -0.04732811 -0.0045949123 0.009775283 -0.053788587 0.05842843
0.011092915 -0.00607219 -0.020569308 -0.094477475 0.047015578 0.022418326 -0.08925229 -0.009992093
-0.016516877 -0.05029144 -0.0046105003 -0.078344904 -0.025525013 -0.017207934 -0.05703903 -0.0302152
-0.07331363 -0.038269803 0.015682075 -0.034671728 -0.03976525 0.004731562 0.012712485 -0.05485421
0.008910387 -0.016792826 -0.005797215 -0.0026172819 -0.05901551 -0.06606092 -0.005322154 -0.011872615
00000000: fcfe abbc 083e 223a 4cd5 44bc 6950 1f3d
00000010: 429b 4a3c a0c1 dc3c bb94 a43b 7b37 29bc
00000020: b837 febc a46a a53c 5618 eabc 045e 66bd
00000030: 9341 7abc 5104 563b 8a24 76bc 823b 863c
00000040: bcce 573c 7ff8 f03b 0f5b 3fbd 51f9 01bd
00000050: 9f23 393d f966 133d 550b 03bd 44f3 dd3c
00000060: d916 753d 2544 e73c 5454 23bd 3429 cebd
00000070: 9f0d 97bd acdd 64ba 6b11 3d3d 66b6 c63c
00000080: 8745 403d 97e3 7cbd 3aeb 7bbd 0dcd 97bd
00000090: 104e 41bd b034 6dbd fc57 8ebd bced e2bc
000000a0: c781 95bd 3737 08bd 20f7 79bc 793a fcbc
000000b0: fbfb 09bd 5a70 a23b 0980 adbd 0b01 fa3b
000000c0: 3f10 76bc 59ce 7ebd 326f 3b3d f733 a83c
000000d0: 39fb 303d 5e32 42bc 79e6 c03c bb5e febc
000000e0: b276 9abd af70 f03c 285b 1f3d 6541 8ebc
000000f0: 7328 9f3c 1a66 7e3c a064 b2bc fcb3 3fbd
00000100: 15cc 02bd e4b0 40bd 15df 85bc 6001 3a3d
00000110: 6cbd 923c c661 b03b 599c be3c 868f 59bd
00000120: 8969 1bbd aefc 5a3c 1f9a 2d3c 5f34 e13a
00000130: d360 823d 5d3f 22bd 76ba 78bd 7db8 543d
00000140: 947e fabc 44a3 e7bb 7b38 d9bc c90c c1bc
00000150: e9ff 4e3b 2520 b5bc 36e2 0bbc 61cd 9cbc
00000160: 322c 63bd cfe0 37bc fc42 eebb aa89 dabb
00000170: 1490 4b3d a2a9 25bd 7d48 243c 24bc 0b3c
00000180: ab7e 1cbd 5272 833c 872b 0a3a dfe9 b3bd
00000190: 54ec 76bd 0e5d 93bd 52fb 84bb 850b 8ebd
000001a0: 180e 8bbd 06cf aebc 00f3 a63c ea4a 5ebd
000001b0: c222 953c 1cab 53bd 528d 2abc 4a5a d7bc
000001c0: 4a40 90bc e621 413d 2f16 293c 94bd 9d3d
000001d0: a31a cdbc 54b0 46bc c26f 983c df08 66bb
000001e0: f58a 8dbd 607e d4bb 8449 95bc 99d8 3fbd
000001f0: 904c 9abd 982f 06bd b6e8 9bbd 3f68 19bc
00000200: ba71 25bd 3d83 353d 9486 6d3d 78e5 98bb
00000210: 3a0b 7ebc 90f1 1e3c 2b1e 14bc 16b8 5d3d
00000220: 8ec7 1e3d 0b2b d73c baf6 2abd f9ea 89bc
00000230: 859d 9abd 6292 343c 1284 313c 1f5e 91bd
00000240: a91e 04bc 5bc2 073c c067 08ba 7d7b 133d
00000250: e9d4 af3d b3ea 143d a721 f739 812b 913b
00000260: a703 89bd 2cdf e9bd ec0b c63c 0609 be3c
00000270: 85e8 abbc b342 3ebc 5a48 73bc 8f30 cd39
00000280: 859c 48bc d39f 4abd 69d7 273d 0a52 a73c
00000290: b918 49bd 0e2c af3c b7e6 7a3b 2e76 58bd
000002a0: 6b99 1ebb 04e1 4dbd d54f 643d e963 7a3c
000002b0: 84f7 98bc 36e3 1e3d 81d6 bb3b cf4a 413b
000002c0: 2219 063d 092b 403d f9af 0e3d 5e14 263d
000002d0: 556b 40bd c41e 20bb 29ba 813d c301 e23c
000002e0: 6ee2 703c ec28 123d 4f35 31bc 34c2 b83a
000002f0: f83d 043d 43e3 75bd 57ee 74bc 3629 a23d
00000300: 3173 6cbc 27b2 883c 0581 353d 9461 2f3d
00000310: d4bc 5f3d a999 d83c 2ec9 6a3c 266f 47bd
00000320: 75cf 38bd 7ae0 b4bc 0c2e 1a3d 1bd9 943d
00000330: 90fa e3bc 7313 44bb dbee 52bc 9858 0b3a
00000340: 6c20 abbc 2fe6 a6bc 6851 b6bd fb0b b2bc
00000350: 0a44 c0bd e260 8cbd 3b5b 723b 372f 8dbc
00000360: c6f0 0bbd cecf 593d 8dc4 6c3b 1fdb 41bd
00000370: eb90 96bb 8228 203c 6c51 5cbd a652 6f3d
00000380: 0fbf 353c 39f9 c6bb f780 a8bc 687d c1bd
00000390: 6893 403d a3a6 b73c e8c9 b6bd e0b5 23bc
000003a0: 674e 87bc 66fe 4dbd ae13 97bb 4b73 a0bd
000003b0: d519 d1bc a7f7 8cbc c2a1 69bd de85 f7bc
000003c0: 7525 96bd ccc0 1cbd b277 803c f103 0ebd
000003d0: e3e0 22bd 380b 9b3b 0748 503c cfae 60bd
000003e0: dffc 113c 1c91 89bc 90f6 bdbb b486 2bbb
000003f0: 3fba 71bd f34a 87bd 7765 aebb 5b85 42bc

bias f4 [64]
-0.16635455 -0.12474299 -0.18801981 -0.15303825 -0.0688412 -0.09549243 -0.105023995 -0.14635798
-0.10985547 -0.15824711 -0.1413254 -0.10297084 -0.13667178 -0.07253123 -0.11864282 -0.21753578
-0.08479678 -0.11861156 -0.1184499 -0.10860286 -0.17252879 -0.16438846 -0.08603383 -0.09434349
-0.16051273 -0.1502314 -0.12300915 -0.12779284 -0.07955537 -0.023023997 -0.15442316 -0.057914782
-0.10756427 -0.105296545 -0.09929041 -0.11479141 -0.079089984 -0.10190629 -0.1240931 -0.14200597
-0.156337 -0.071469866 -0.118182614 -0.14258806 -0.11145343 -0.14362346 -0.24622399 -0.12874933
-0.09278954 -0.10192183 -0.16148382 -0.12031178 -0.11407804 -0.14253344 -0.13881388 -0.10559981
-0.058392085 -0.16948952 -0.12679413 -0.18904112 -0.10843731 -0.14092885 -0.075398035 -0.15464051
00000000: d958 2abe 4179 ffbd 4488 40be 0fb6 1cbe
00000010: 9dfc 8cbd 8991 c3bd d216 d7bd dede 15be
00000020: e8fb e0bd 880b 22be 9bb7 10be 60e2 d2bd
00000030: b0f3 0bbe 418b 94bd 02fb f2bd b3c1 5ebe
00000040: efa9 adbd 9eea f2bd dc95 f2bd 2d6b debd
00000050: 63ab 30be 7355 28be 8132 b0bd 2937 c1bd
00000060: 735d 24be 43d6 19be 39ec fbbd 20dc 02be
00000070: eded a2bd d29c bcbc 1b21 1ebe 0d38 6dbd
00000080: a84a dcbd b7a5 d7bd c558 cbbd c217 ebbd
00000090: eef9 a1bd 3fb4 d0bd 8624 febd 036a 11be
000000a0: ce16 20be cb5e 92bd ba09 f2bd 9b02 12be
000000b0: b241 e4bd 0712 13be 2422 7cbe ddd6 03be
000000c0: 7108 bebd 64bc d0bd 045c 25be 0666 f6bd
000000d0: bfa1 e9bd 49f4 11be 3a25 0ebe b744 d8bd
000000e0: 8a2c 6fbd a98e 2dbe 52d6 01be ff93 41be
000000f0: 6114 debd a74f 10be 496a 9abd 155a 1ebe

weight f4 [64]
1.1821806 1.2387588 1.1903161 1.1863217 1.2072648 1.1553158 1.2605768 1.1597323
1.1958369 1.2200828 1.2222369 1.1630306 1.2707213 1.1870313 1.2679696 1.2818173
1.2310588 1.2366095 1.2056655 1.2353393 1.2244648 1.1444111 1.3118219 1.2437271
1.2990546 1.1560389 1.222294 1.1619844 1.1401798 1.2750314 1.1415349 1.1751925
1.217734 1.2818685 1.241937 1.2433126 1.2262887 1.1828443 1.2279949 1.2257211
1.1886566 1.2038724 1.2415347 1.255101 1.1455113 1.1608901 1.2947416 1.1863862
1.2020845 1.3008679 1.2197117 1.1728443 1.244317 1.2385633 1.2810917 1.1987085
1.1686156 1.3145791 1.2817751 1.1712191 1.2773278 1.2691804 1.2340714 1.26317
00000000: b251 973f a68f 9e3f 475c 983f 64d9 973f
00000010: a787 9a3f 63e1 933f 955a a13f 1c72 943f
00000020: 2f11 993f ac2b 9c3f 4272 9c3f 30de 943f
00000030: ffa6 a23f a4f0 973f d44c a23f 9712 a43f
00000040: 5693 9d3f 3849 9e3f 3f53 9a3f 991f 9e3f
00000050: 43bb 9c3f 107c 923f c8e9 a73f 7332 9f3f
00000060: 6c47 a63f 15f9 933f 2174 9c3f e8bb 943f
00000070: 69f1 913f 3b34 a33f d11d 923f b56c 963f
00000080: b5de 9b3f 4414 a43f cbf7 9e3f de24 9f3f
00000090: 07f7 9c3f 7167 973f f02e 9d3f 6ee4 9c3f
000000a0: e625 983f 7e18 9a3f 9cea 9e3f 26a7 a03f
000000b0: 1da0 923f 0c98 943f 18ba a53f 81db 973f
000000c0: e8dd 993f d782 a63f 831f 9c3f c31f 963f
000000d0: c845 9f3f 3e89 9e3f d0fa a33f 486f 993f
000000e0: 3295 953f 2144 a83f 3511 a43f 82ea 953f
000000f0: 7a7f a33f 8174 a23f 0df6 9d3f 8eaf a13f

bias f4 [64]
-0.0045207045 0.002200786 -0.0971675 -0.0469304 -0.052933175 -0.042601824 -0.083398275 -0.022195118
-0.052623287 0.014952849 -0.061128728 0.04544087 -0.0536555 -0.033750042 0.020436104 -0.034498338
-0.007971079 -0.053040806 -0.05044448 -0.11782379 -0.053035047 -0.06547387 -0.0424898 -0.034561034
-0.043036725 -0.05637769 -0.05892984 -0.006603077 0.02779764 -0.08235169 -0.015660398 -0.04852168
-0.08633044 -0.03881613 0.00057850295 -0.07330988 -0.028483251 -0.05519197 -0.022512523 -0.05020802
-0.039859198 -0.010621432 -0.08125277 -0.065782286 -0.014869781 -0.01940333 -0.059740234 -0.08849698
-0.010443402 -0.025246536 -0.0052429005 -0.05140554 -0.05883538 -0.07903477 -0.063418694 -0.07836078
-0.021624228 0.007853714 -0.10082276 -0.059532136 -0.047278497 -0.070107855 -0.03357613 0.016101329
00000000: 6b22 94bb 103b 103b c1ff c6bd 173a 40bd
00000010: 75d0 58bd 407f 2ebd b7cc aabd 89d2 b5bc
00000020: 848b 57bd cbfc 743c 1e62 7abd 3520 3a3d
00000030: dfc5 5bbd 7c3d 0abd 9e69 a73c 214e 0dbd
00000040: 2199 02bc 5141 59bd df9e 4ebd 994d f1bd
00000050: 473b 59bd 2a17 86bd c909 2ebd df8f 0dbd
00000060: 4747 30bd 4bec 66bd 6a60 71bd a05e d8bb
00000070: e0b7 e33c 01a8 a8bd 3c4a 80bc abbe 46bd
00000080: 04ce b0bd aafd 1ebd ada6 173a 7e23 96bd
00000090: b555 e9bc fa10 62bd 2f6c b8bc eda6 4dbd
000000a0: 6643 23bd 8405 2ebc da67 a6bd ddb8 86bd
000000b0: 62a0 73bc bbf3 9ebc 2db2 74bd e83d b5bd
000000c0: ce1a 2bbc d3d1 cebc a3cc abbb 9e8e 52bd
000000d0: 5efd 70bd fbdc a1bd a9e1 81bd 9e7b a0bd
000000e0: 4b25 b1bc ddac 003c 2a7c cebd f8d7 73bd
000000f0: 19a7 41bd b594 8fbd 2087 09bd efe6 833c

running_mean f4 [64]
0.031421836 0.09675405 0.107532315 0.06941162 0.058822073 0.073737286 0.07929318 0.11549514
0.11596197 0.043867357 0.08591921 0.0747224 0.08434781 0.07905678 0.081613496 0.11469905
0.07059653 0.06280959 0.066904195 0.14069581 0.15111127 0.07576191 0.13894445 0.14512917
0.08925891 0.10825224 0.08071868 0.07661518 0.09527197 0.17947596 0.06258779 0.06954251
0.10866467 0.16128123 0.08449451 0.066477604 0.07131114 0.071514346 0.13100913 0.15687189
0.15877494 0.09265947 0.10397019 0.08700746 0.05063243 0.058745913 0.037282113 0.06747602
0.07869547 0.11154681 0.07003265 0.080671646 0.090977155 0.11306197 0.10608859 0.120269194
0.09653489 0.05442515 0.07263339 0.07191656 0.13632372 0.17546105 0.120658815 0.049812958
00000000: 2fb4 003d fd26 c63d e739 dc3d ae27 8e3d
00000010: 6aef 703d 9303 973d 7664 a23d b788 ec3d
00000020: 787d ed3d 42ae 333d 69f6 af3d 0f08 993d
00000030: 8bbe ac3d 85e8 a13d fa24 a73d 56e7 ea3d
00000040: ea94 903d 50a2 803d 1105 893d 9012 103e
00000050: eabc 1a3e 0f29 9b3d 7447 0e3e be9c 143e
00000060: 60cd b63d 5ab3 dd3d d64f a53d 6be8 9c3d
00000070: f31d c33d 8cc8 373e 072e 803d 4e6c 8e3d
00000080: 958b de3d e826 253e 750b ad3d 6925 883d
00000090: 930b 923d 1d76 923d 4227 063e 06a3 203e
000000a0: e695 223e 40c4 bd3d 53ee d43d f830 b23d
000000b0: f363 4f3d 8e9f 703d 21b5 183d de30 8a3d
000000c0: 172b a13d a772 e43d 476d 8f3d 2d37 a53d
000000d0: 3b52 ba3d 098d e73d fa44 d93d b24f f63d
000000e0: 16b4 c53d e8ec 5e3d d1c0 943d fd48 933d
000000f0: 7298 0b3e 10ac 333e f81b f73d ac08 4c3d

running_var f4 [64]
0.015039282 0.07118001 0.080420025 0.050189942 0.03809402 0.04937252 0.042402204 0.09567742
0.08962676 0.018098284 0.06620514 0.030682752 0.06052989 0.04135835 0.06858448 0.08214221
0.04495065 0.030191543 0.038460705 0.096589446 0.12474809 0.054336853 0.08057853 0.09012582
0.05249879 0.0634723 0.044318654 0.05307212 0.043920834 0.16455653 0.036041502 0.032749567
0.0745342 0.101419054 0.04572025 0.062597685 0.043025434 0.03819316 0.06578031 0.10867908
0.110565126 0.04968823 0.06993031 0.06312306 0.022635503 0.04166821 0.030955322 0.036938358
0.038551968 0.067848146 0.046579838 0.057290684 0.05379412 0.10072975 0.05494176 0.08512414
0.06429584 0.03335056 0.041202135 0.041654017 0.10276024 0.13766223 0.09845752 0.028250935
00000000: 5267 763c d3c6 913d 41b3 a43d f893 4d3d
00000010: 7a08 1c3d d73a 4a3d efad 2d3d 86f2 c33d
00000020: 3c8e b73d da42 943c 8f96 873d 655a fb3c
00000030: 31ee 773d 6067 293d 0576 8c3d 2d3a a83d
00000040: 2c1e 383d 4154 f73c f988 1d3d b0d0 c53d
00000050: ed7b ff3d 5290 5e3d 5b06 a53d e393 b83d
00000060: f908 573d c4fd 813d 7a87 353d 2762 593d
00000070: 55e6 333d 8281 283e 41a0 133d 6924 063d
00000080: 63a5 983d cbb4 cf3d 2845 3b3d 3733 803d
00000090: 703b 303d 6e70 1c3d d4b7 863d 2393 de3d
000000a0: f86f e23d e385 4b3d 9f37 8f3d aa46 813d
000000b0: 176e b93c 49ac 2a3d 0496 fd3c ad4c 173d
000000c0: abe8 1d3d f8f3 8a3d 80ca 3e3d a3a9 6a3d
000000d0: 3957 5c3d 664b ce3d 9c0a 613d 9155 ae3d
000000e0: 8aad 833d 999a 083d 92c3 283d 679d 2a3d
000000f0: f673 d23d 54f7 0c3e 19a4 c93d 816e e73c

weight f4 [256, 256]
0.010293341 0.018840196 -0.06609636 -0.0051068533 -0.025536811 0.027862012 -0.032642636 -0.011539277
-0.055425745 0.048503954 -0.1361604 0.08543727 -0.10592747 0.0053050686 -0.024676884 -0.14968108
-0.012301804 -0.030433413 -0.05621836 -0.034748636 -0.030647017 0.081262976 -0.041725446 -0.07721164
-0.01038966 -0.048848577 0.052000105 -0.04556203 0.01362718 -0.055139165 0.0011059503 0.0069418564
0.025336113 0.03906939 -0.09909783 0.0018110945 0.15428862 0.0034804735 0.023515377 0.041258853
0.0053761657 -0.013162399 0.08211941 0.027981782 0.06995407 0.016966257 0.05459494 0.03221228
0.050468635 0.0006421106 -0.032492016 -0.0646157 0.05850328 -0.0042394213 0.051294584 -0.05799162
-0.013985293 -0.0038787774 0.085777424 -0.010411844 -0.10574143 -0.052942056 0.038941514 0.0011498901
-0.05677104 0.06750339 0.050235976 0.00917251 -0.025138395 0.07667353 -0.07677074 0.079402864
0.03337354 0.026087532 -0.03721871 0.031817794 -0.019010544 -0.00091749866 -0.017513897 0.025445897
0.01857184 -0.0015163824 -0.08981833 -0.114779584 0.0012426313 -0.04644878 0.019780973 0.009136602
-0.012452882 -0.014494398 -0.06143016 0.0196249 -0.040992703 -0.10722377 0.006106286 -0.13506804
0.00037848175 0.08551831 -0.017936055 -0.118284635 -0.0076647433 -0.038042843 -0.0845657 0.046204943
0.009057238 0.05756281 -0.11695463 -0.010640813 0.023978205 0.007268064 0.0437141 0.021809535
0.05576299 0.08379725 0.043988153 -0.040295478 0.092664756 0.01065451 -0.020505596 -0.000993435
0.060998417 0.0080967 0.068401575 -0.0041196966 0.022487624 0.043967996 -0.07348615 -0.053309586
-0.0015388823 0.11933014 -0.045432422 0.0023007197 0.021538593 0.052650623 -0.06883328 0.094110504
-0.04327751 0.024383634 0.107002065 0.0047850427 0.06846038 -0.036053095 -0.015428246 -0.109763555
-0.028228005 0.06466558 0.003248888 -0.010608315 0.07362454 -0.01791302 0.024157792 -0.094222
-0.091555536 0.0067231683 -0.031569503 0.13029416 -0.030830147 -0.091771916 -0.08607089 0.039112017
-0.0073479754 -0.09388638 -0.05955465 -0.11215865 0.10660729 0.042362373 -0.040574677 0.061568804
0.026822833 -0.026757358 0.008949225 0.045970492 0.08610027 -0.0007048808 -0.017300095 0.012072304
0.07327948 0.0071970937 -0.023039617 0.012950341 0.02915298 0.0063441894 0.036272563 -0.16974615
-0.011575459 0.019973004 0.04897846 -0.06753037 -0.021374129 -0.03734317 0.024286594 -0.11853631
0.08204384 0.03917964 -0.057596378 0.0056194607 0.001969817 0.038668305 0.071526155 0.026518699
0.120017424 -0.044944458 0.08333934 -0.1519587 0.021477109 -0.11014341 0.022719113 -0.006306229
0.033825133 0.048883 -0.043674137 -0.027213676 -0.031823594 -0.013050564 -0.078585505 0.00015853428
-0.063794374 0.059685394 0.02909537 -0.062273555 -0.0980073 -0.015428779 -0.040310852 -0.040231314
-0.02488478 -0.033594396 0.0052423654 -0.116520554 0.037080634 0.0063167615 0.025714183 0.13049024
0.010661953 0.018117152 -0.072079875 0.05331462 -0.10242006 -0.06658057 -0.015104126 -0.1490959
-0.03577312 -0.033226334 -0.00812732 -0.053155478 -0.044053968 -0.081937745 -0.0726819 0.013723203
-0.019043026 -0.0019935055 0.03798168 0.10385148 -0.0035573822 0.0229974 -0.039795134 -0.03854587
00000000: 67a5 283c c156 9a3c 875d 87bd 6457 a7bb
00000010: 9332 d1bc e03e e43c 49b4 05bd 3c0f 3dbc
00000020: 1b06 63bd 15ac 463d a26d 0bbe bcf9 ae3d
00000030: 80f0 d8bd 24d6 ad3b 2d27 cabc ff45 19be
00000040: 818d 49bc 7e4f f9bc 3945 66bd 9654 0ebd
00000050: 740f fbbc 346d a63d 4de8 2abd 2321 9ebd
00000060: 6439 2abc 7215 48bd 10fe 543d 409f 3abd
00000070: 8944 5f3c 9bd9 61bd 89f5 903a 8378 e33b
00000080: ae8d cf3c 3a07 203d cef3 cabd 3f62 ed3a
00000090: d6fd 1d3e a818 643b 52a3 c03c 0bff 283d
000000a0: 8c2a b03b 1aa7 57bc 392e a83d 0d3a e53c
000000b0: 1444 8f3d d2fc 8a3c f29e 5f3d 06f1 033d
000000c0: 33b8 4e3d 5053 283a 5916 05bd 3c55 84bd
000000d0: 23a1 6f3d d8ea 8abb 451a 523d 9f88 6dbd
000000e0: 9222 65bc 1633 7ebb 13ac af3d 7096 2abc
000000f0: f68e d8bd c5d9 58bd 2381 1f3d e9b7 963a
00000100: c088 68bd 383f 8a3d 3dc4 4d3d 4c48 163c
00000110: 09ef cdbc 0307 9d3d fa39 9dbd f89d a23d
00000120: b1b2 083d 85b5 d53c a572 18bd 6053 023d
00000130: 00bc 9bbc 4b84 70ba 4e79 8fbc ea73 d03c
00000140: f923 983c 5ac1 c6ba acf2 b7bd 8f11 ebbd
00000150: cadf a23a 1341 3ebd b50b a23c b0b1 153c
00000160: 2c07 4cbc e979 6dbc 319e 7bbd 66c4 a03c
00000170: f7e7 27bd 2398 dbbd 3d17 c83b 474f 0abe
00000180: f66e c639 3924 af3d a2ee 92bc 373f f2bd
00000190: 8728 fbbb d0d2 1bbd c830 adbd 6541 3d3d
000001a0: cf64 143c fbc6 6b3d e985 efbd ce56 2ebc
000001b0: f16d c43c f128 ee3b 8e0d 333d e9a9 b23c
000001c0: bc67 643d e59d ab3d ec2c 343d df0c 25bd
000001d0: 05c7 bd3d 4190 2e3c 5afb a7bc 2636 82ba
000001e0: 7ad9 793d 05a8 043c 2016 8c3d 85fe 86bb
000001f0: f737 b83c c917 343d e87f 96bd 275b 5abd
00000200: 52b4 c9ba 5c63 f43d 5917 3abd acc7 163b
00000210: b471 b03c 2ea8 573d 76f8 8cbd 02bd c03d
00000220: c243 31bd 30c0 c73c e623 db3d d9cb 9c3b
00000230: f534 8c3d 69ac 13bd c1c6 7cbc b7cb e0bd
00000240: 6b3e e7bc 636f 843d 4ceb 543b 7fce 2dbc
00000250: 76c8 963d 53be 92bc 90e6 c53c 77f7 c0bd
00000260: 7881 bbbd 064e dc3b 064f 01bd d56b 053e
00000270: 818f fcbc eaf2 bbbd ef45 b0bd ec33 203d
00000280: 49c7 f0bb 8147 c0bd 94ef 73bd 6fb3 e5bd
00000290: ec54 da3d 2b84 2d3d a231 26bd 922f 7c3d
000002a0: 8fbb db3c 3f32 dbbc c59f 123c 8e4b 3c3d
000002b0: 5755 b03d c0c7 38ba eeb8 8dbc eaca 453c
000002c0: 8d13 963d 99d5 eb3b 94bd bcbc ab2d 543c
000002d0: 3bd2 ee3c ebe2 cf3b 8a92 143d efd1 2dbe
000002e0: fea6 3dbc 6d9e a33c a39d 483d 5d4d 8abd
000002f0: cc18 afbc 27f5 18bd aef4 c63c 2ac3 f2bd
00000300: 9a06 a83d d57a 203d 2eea 6bbd 7423 b83b
00000310: 0c18 013b a862 1e3d 4e7c 923d be3d d93c
00000320: b2cb f53d ae17 38bd d1ad aa3d 109b 1bbe
00000330: c3f0 af3c de92 e1bd 6f1d ba3c 7ca4 cebb
00000340: 398c 0a3d 8a39 483d a7e3 32bd 37ef debc
00000350: 7559 02bd 08d2 55bc 70f1 a0bd 393c 2639
00000360: a0a6 82bd ac78 743d 6a59 ee3c 8e12 7fbd
00000370: 0db8 c8bd fdc8 7cbc fe1c 25bd 97c9 24bd
00000380: 2bdb cbbc 479a 09bd 26c8 ab3b 54a2 eebd
00000390: dde1 173d d6fc ce3b 8da6 d23c 3c9f 053e
000003a0: 79af 2e3c 6c6a 943c 9d9e 93bd 6e60 5a3d
000003b0: 9cc1 d1bd 655b 88bd 4c77 77bc 98ac 18be
000003c0: d686 12bd 5618 08bd 7328 05bc 8fb9 59bd
000003d0: ef71 34bd face a7bd 3fda 94bd 49d7 603c
000003e0: 1f00 9cbc 79a5 02bb ae92 1b3d 16b0 d43d
000003f0: f822 69bb 0b65 bc3c 3900 23bd 46e2 1dbd

bias f4 [256]
0.011354728 0.0059488835 0.08495754 0.035547704 0.01209689 0.0214305 0.0049616336 0.048737448
0.06886129 0.066218644 -0.012951774 0.03920311 -0.04938877 0.007296247 0.07217166 0.06265651
-0.010698974 0.048039615 0.034587 -0.037213355 0.028097097 -0.037688587 -0.052638397 -0.029472679
0.04440876 0.01865609 0.042287696 -0.042455535 0.029260956 0.01873076 -0.050369382 0.006450193
-0.064681694 0.030272335 0.01777334 0.004200361 -0.0083870385 0.0068896487 0.0057152044 0.011437548
-0.016096244 0.00541498 -0.029269421 -0.010382059 0.072024494 0.0465919 -0.027689103 0.036451593
0.06871827 -0.08141285 0.0023526975 -0.01553302 0.0745939 0.028128736 -0.030319968 -0.012583552
0.039358653 0.03127208 0.09215862 -0.059879582 -0.031473227 -0.0130292475 0.060208317 0.08629962
0.06412006 -0.08503177 -0.04977851 0.020611964 -0.0063087502 0.09041424 -0.011530485 0.048229653
0.040311385 0.06037019 -0.033260114 0.0033304172 0.021760052 0.005943806 0.050904457 -0.025587022
-0.042875137 0.05638928 -0.014256581 -0.0021270805 0.0078634815 0.033637434 0.040618084 -0.019154245
0.09775245 0.07915315 -0.020467183 -0.011711957 0.025460549 0.022409257 0.09551901 0.078432426
-0.06119493 0.026367528 -0.0380432 -0.04683586 0.02868428 -0.018466866 -0.029214708 -0.058351748
-0.019372283 0.016883124 0.006824424 0.014964273 -0.055454254 -0.06984717 -0.047050398 0.050561957
-0.0003023087 0.004535658 0.023708707 0.028207343 -0.0015359452 -0.039431013 0.00830288 -0.06740151
0.03831197 0.019409463 0.017201956 0.019568093 -0.04458283 0.04730851 0.023939064 0.020625636
-0.055592507 0.058684785 0.036131535 -0.0150497565 -0.010595689 0.03475008 -0.057738762 -0.003423522
0.035608638 0.06119177 0.055786435 0.042227253 0.022894282 0.028595477 -0.060340937 0.028031169
-0.009640874 -0.020051016 -0.011791922 0.0024667776 0.05507627 0.047318645 -0.022779621 0.0025480723
0.02769774 0.026583567 -0.011564141 -0.008930992 0.08980403 0.035830956 -0.032913912 0.023170223
-0.03581896 0.08097935 0.07680319 0.06978851 0.03765214 0.028527005 -0.014087855 0.044352442
-0.01540543 0.032628234 0.028817402 -0.029173901 0.017962482 0.07748314 -0.012428337 0.028063087
-0.05572073 -0.055051733 0.051512368 0.015394865 0.019158494 0.0328886 0.04399043 -0.03967218
-0.028258767 0.008881759 -0.05444461 0.0059845005 -0.013870608 -0.0016965313 0.010593813 0.0310476
0.027569769 0.029718608 0.033628095 0.0003358419 0.14346257 0.093551576 -0.025209915 0.06240299
0.030593878 0.008794505 0.06611075 -0.031023256 0.03175501 -0.06336449 0.059416525 -0.0620938
0.04074249 0.021232655 -0.05856216 -0.09049567 0.019869814 -0.050216004 0.02389852 0.028816214
-0.060426906 0.045708794 -0.046248604 -0.021085119 -0.036578298 0.04916983 0.022149216 0.01323034
-0.050507225 0.09284255 0.076977246 0.010536475 -0.032055266 0.006931354 -0.02344171 0.04687233
0.020759145 -0.021816934 -0.07343565 -0.019379351 0.07682497 -0.0046957303 0.029707087 0.018424412
-0.0197737 -0.0005654022 -0.028988272 0.018065728 -0.016399352 0.020915253 0.013924213 -0.0059679267
-0.017298823 0.05164498 -0.040308207 -0.000121143676 -0.012276483 -0.03926079 -0.016954424 0.0025134417
00000000: 2e09 3a3c daee c23b 38fe ad3d 789a 113d
00000010: 0932 463c 048f af3c 3395 a23b eba0 473d
00000020: 2607 8d3d a49d 873d ad33 54bc 7193 203d
00000030: e14b 4abd 5b15 ef3b bcce 933d 0e52 803d
00000040: c04a 2fbc 30c5 443d 19ab 0d3d 086d 18bd
00000050: e22b e63c 595f 1abd 5c9b 57bd b070 f1bc
00000060: f6e5 353d a8d4 983c dd35 2d3d dbe5 2dbd
00000070: acb4 ef3c 4071 993c 2050 4ebd 245c d33b
00000080: d677 84bd b0fd f73c 6599 913c 2fa3 893b
00000090: ca69 09bc 90c2 e13b 9c46 bb3b 8e64 3b3c
000000a0: 45dc 83bc 2570 b13b 6dc6 efbc 8319 2abc
000000b0: 9481 933d 26d7 3e3d 42d4 e2bc 444e 153d
000000c0: 2abc 8c3d c8bb a6bd b72f 1a3b 357e 7ebc
000000d0: b0c4 983d 3c6e e63c 9561 f8bc 3e2b 4ebc
000000e0: 8a36 213d 2717 003d a9bd bc3d 4b44 75bd
000000f0: 12ea 00bd a078 55bc ff9c 763d dbbd b03d
00000100: 6151 833d 2325 aebd 8de4 4bbd 6cda a83c
00000110: a2b9 cebb 1a2b b93d 5cea 3cbc 758c 453d
00000120: 8d1d 253d bb46 773d c23b 08bd 2143 5a3b
00000130: 2342 b23c 42c4 c23b 3181 503d e09b d1bc
00000140: d79d 2fbd 72f8 663d 6f94 69bc 7d66 0bbb
00000150: d5d5 003c 68c7 093d 265f 263d 5de9 9cbc
00000160: 7032 c83d 0c1b a23d cbaa a7bc 82e3 3fbc
00000170: a492 d03c 9e93 b73c 799f c33d 2ea1 a03d
00000180: 89a7 7abd b700 d83c 30d3 1bbd f5d6 3fbd
00000190: 4cfb ea3c d347 97bc af53 efbc 3e02 6fbd
000001a0: 9fb2 9ebc 7a4e 8a3c 6b9f df3b b62c 753c
000001b0: 0024 63bd 080c 8fbd ebb7 40bd 0e1a 4f3d
000001c0: 307f 9eb9 db9f 943b c338 c23c 1613 e73c
000001d0: c551 c9ba 6a82 21bd ce08 083c ce09 8abd
000001e0: 03ed 1c3d 9800 9f3c 1eeb 8c3c 444d a03c
000001f0: 7c9c 36bd 91c6 413d db1b c43c 18f7 a83c
00000200: f8b4 63bd 755f 703d a9fe 133d 4193 76bc
00000210: 8a99 2dbc 1a56 0e3d 7b7f 6cbd 2b5d 60bb
00000220: 5dda 113d 39a4 7a3d 5180 643d 7cf6 2c3d
00000230: ca8c bb3c 1041 ea3c 0f28 77bd 9fa1 e53c
00000240: c2f4 1dbc 0742 a4bc e832 41bc a9a9 213b
00000250: a897 613d 32d1 413d 549c babc 8ffd 263b
00000260: 5fe6 e23c c8c5 d93c 8677 3dbc 4c53 12bc
00000270: 2deb b73d 7bc3 123d bdd0 06bd 7bcf bd3c
00000280: e7b6 12bd 80d8 a53d fe4a 9d3d 47ed 8e3d
00000290: 2139 1a3d 77b1 e93c bfd0 66bc e8aa 353d
000002a0: 0f67 7cbc 2fa5 053d 7912 ec3c 1bfe eebc
000002b0: 0e26 933c 7baf 9e3d 39a0 4bbc 8fe4 e53c
000002c0: 6c3b 64bd ed7d 61bd a2fe 523d be3a 7c3c
000002d0: 46f2 9c3c 32b6 063d 4f2f 343d 4c7f 22bd
000002e0: ee7e e7bc cc84 113c 5001 5fbd a119 c43b
000002f0: 8c41 63bc 255e deba ac91 2d3c 8957 fe3c
00000300: ffd9 e13c 7074 f33c 9dbd 093d f013 b039
00000310: dae7 123e f897 bf3d 0685 cebc 479a 7f3d
00000320: 03a0 fa3c d416 103c 1365 873d 7c24 febc
00000330: 8b11 023d 3ec5 81bd be5e 733d 1256 7ebd
00000340: 99e1 263d 1bf0 ad3c e0de 6fbd cb55 b9bd
00000350: 05c6 a23c 4caf 4dbd d4c6 c33c fb0f ec3c
00000360: 3482 77bd 2539 3b3d 2d6f 3dbd b3ba acbc
00000370: 20d3 15bd 4e66 493d 4672 b53c 11c4 583c
00000380: aae0 4ebd 3c24 be3d 3fa6 9d3d 2ea1 2c3c
00000390: 624c 03bd 6920 e33b d408 c0bc 33fd 3f3d
000003a0: 150f aa3c 6db9 b2bc 6e65 96bd 72c1 9ebc
000003b0: 6956 9d3d a4de 99bb 475c f33c cbee 963c
000003c0: 74fc a1bc 8037 14ba d078 edbc 94fe 933c
000003d0: ef57 86bc 7756 ab3c 6222 643c 998e c3bb
000003e0: 43b6 8dbc b089 533d 381a 25bd 840e feb8
000003f0: 4d23 49bc eccf 20bd 01e4 8abc 8eb8 243b

weight f4 [62, 256]
-0.49924865 0.053871963 -0.11938338 0.04202003 -0.14486499 -0.012191489 -0.0637779 -0.007092886
-0.07689218 -0.2622677 0.01943713 -0.19586657 0.07332863 -0.074302234 0.024492873 0.0044019297
0.05460024 0.049492758 -0.05972561 -0.18268563 0.049604084 -0.0653682 -0.08751889 -0.10216512
-0.17327948 0.079467535 -0.037200518 -0.017882884 -0.026478687 0.019481527 0.04144608 -0.115537815
0.069845855 -0.065840036 -0.07379285 0.031612154 -0.01464931 -0.058396555 -0.055787873 -0.06237352
0.06322886 0.047210664 -0.026538905 -0.048714034 0.018467475 -0.11804494 0.020688158 -0.11634219
0.053251144 0.0574811 -0.15187325 -0.1797949 0.0588318 0.05780963 0.02992906 -0.14487647
0.042084187 -0.021723585 -0.17993762 0.031151906 -0.25007668 -0.031004399 -0.03706358 -0.07027432
-0.055232834 0.040339004 -0.13388811 -0.21223265 -0.03521576 0.049248822 0.025671162 -0.18721882
-0.10335194 -0.032160107 -0.43246326 -0.10106911 0.0025220448 0.02798379 -0.1330126 -0.26041597
-0.17954032 -0.009543542 -0.031131191 -0.016044447 0.031336986 0.033861063 -0.028792636 0.04993423
0.02635354 0.09120413 0.012138813 0.039944727 0.040377423 0.027576584 -0.13966005 -0.22691946
0.0042342884 0.057363424 -0.0046294797 -0.055404287 -0.077115186 0.060456663 0.02287049 0.0151188765
0.0555239 -0.054320935 0.06272748 -0.048298437 -0.09233352 -0.14705734 -0.10108463 -0.2028967
-0.14239404 -0.083531074 -0.1305009 -0.030241298 -0.13633166 -0.008803223 0.00014944944 0.04191402
-0.10888878 0.006440711 -0.0077427085 -0.056559365 -0.01960814 -0.12558515 -0.5464392 -0.025866807
0.010659017 -0.16814983 0.058489714 -0.047307305 -0.02477859 -0.10266607 -0.14917947 0.03385462
-0.0026417891 0.043587435 -0.04057581 0.025096454 0.037882823 0.057278674 0.014620851 -0.02734011
0.06382164 0.027008472 -0.15289037 -0.082094446 -0.020482777 0.02198879 -0.049612273 -0.18286955
-0.19547692 -0.08456121 0.068656415 -0.023470372 -0.008326683 -0.22396356 -0.09198458 -0.040697917
-0.14039491 0.02252393 -0.08010812 0.0596231 -0.21042992 -0.16162954 0.013176777 0.061501745
0.010436992 0.01405912 -0.031904694 0.03375982 -0.020900233 -0.05170036 0.01666589 -0.09546002
0.05907709 -0.07134725 0.04247963 0.06996966 -0.0006360071 -0.08704567 -0.07618459 -0.2317726
-0.18235652 -0.09415006 0.069662295 0.0055574523 0.040552005 0.023358619 0.04789704 -0.09094478
-0.12247582 -0.27858585 0.060824256 -0.15143709 -0.2872753 -0.2602613 -0.05363235 0.050175812
-0.009702181 0.031403273 -0.043688174 -0.079080656 -0.011657963 0.036114216 -0.045968316 -0.06412602
0.06470192 0.050676316 -0.08740158 -0.07182531 0.07761256 0.107633844 -0.008324285 0.019448048
-0.013453106 -0.11339757 -0.031787526 0.010463921 -0.014765195 -0.031991757 0.003857804 -0.09836835
0.016987806 -0.33008426 0.055089075 -0.17728402 0.0051952736 -0.1743104 -0.14380743 0.0055484003
-0.04022987 -0.17470035 -0.16095978 -0.12151719 -0.1149732 -0.03296175 0.050897032 -0.14612001
-0.07922035 -0.1481222 -0.087041385 -0.14267491 -0.10088312 0.0042245653 0.04194054 -0.1342778
-0.0872724 0.06910856 -0.07341569 0.026439438 -0.063913636 -0.016109766 0.012131703 -0.012300843
00000000: 859d ffbe d9a8 5c3d 467f f4bd 321d 2c3d
00000010: 7d57 14be d0be 47bc fd9d 82bd 716b e8bb
00000020: a679 9dbd f447 86be 9e3a 9f3c 3f91 48be
00000030: 522d 963d c52b 98bd 47a5 c83c 103e 903b
00000040: 80a4 5f3d ebb8 4a3d d7a2 74bd f111 3bbe
00000050: a72d 4b3d c3df 85bd 1b3d b3bd f23b d1bd
00000060: 2d70 31be e0bf a23d 925f 18bd 207f 92bc
00000070: d5e9 d8bc b997 9f3c 5dc3 293d 179f ecbd
00000080: 580b 8f3d 24d7 86bd b520 97bd bf7b 013d
00000090: a903 70bc 3a31 6fbd d381 64bd 607b 7fbd
000000a0: 227e 813d f85f 413d 1e68 d9bc 5e88 47bd
000000b0: 1a49 973c 8cc1 f1bd 367a a93c d044 eebd
000000c0: df1d 5a3d 4d71 6b3d a984 1bbe 271c 38be
000000d0: 9df9 703d cac9 6c3d ca2d f53c 7f5a 14be
000000e0: 7860 2c3d a9f5 b1bc 9141 38be 4832 ff3c
000000f0: 0d0a 80be f0fc fdbc fbcf 17bd fceb 8fbd
00000100: d33b 62bd 833a 253d f719 09be 8453 59be
00000110: 673e 10bd 22b9 493d 544c d23c 4ab6 3fbe
00000120: 2faa d3bd 51ba 03bd d36b ddbe 52fd cebd
00000130: e448 253b 433e e53c 7434 08be 3e55 85be
00000140: 6bd9 37be 845c 1cbc d706 ffbc a56f 83bc
00000150: 365b 003d e6b1 0a3d 89de ebbc d687 4c3d
00000160: 61e3 d73c 3bc9 ba3d dfe1 463c 159d 233d
00000170: cc62 253d 4ae8 e13c 0b03 0fbe 935d 68be
00000180: c9bf 8a3b e9f5 6a3d e4b2 97bb 9bef 62bd
00000190: 91ee 9dbd 68a1 773d e55a bb3c 2ab5 773c
000001a0: 076d 633d a17f 5ebd 4477 803d 95d4 45bd
000001b0: 5b19 bdbd 3396 16be 7505 cfbd 27c4 4fbe
000001c0: becf 11be 5712 abbd 07a2 05be 99bc f7bc
000001d0: 879a 0bbe 653b 10bc 87b5 1c39 09ae 2b3d
000001e0: 1501 dfbd 9a0c d33b 8cb6 fdbb cbaa 67bd
000001f0: 40a1 a0bc 6599 00be 70e3 0bbf a0e6 d3bc
00000200: 28a3 2e3c 782f 2cbe e992 6f3d 4ec5 41bd
00000210: 78fc cabc 9742 d2bd 81c2 18be 24ab 0a3d
00000220: de21 2dbb bd88 323d d232 26bd 1497 cd3c
00000230: 052b 1b3d 0b9d 6a3d 4b8c 6f3c 5ef8 dfbc
00000240: ecb4 823d df40 dd3c 4b8f 1cbe 2221 a8bd
00000250: 7fcb a7bc d621 b43c 3d36 4bbd 2842 3bbe
00000260: 1a2b 48be 6d2e adbd bc9b 8c3d f044 c0bc
00000270: a46c 08bc b456 65be 6962 bcbd dcb2 26bd
00000280: afc3 0fbe 1b84 b83c ba0f a4bd 5a37 743d
00000290: f17a 57be 3782 25be 69e3 573c 41e9 7b3d
000002a0: ebff 2a3c 3958 663c 7fae 02bd bd47 0a3d
000002b0: f736 abbc c2c3 53bd e886 883c 8b80 c3bd
000002c0: d2fa 713d 821e 92bd 1fff 2d3d 414c 8f3d
000002d0: b7b9 26ba 0045 b2bd ab06 9cbd cc55 6dbe
000002e0: abbb 3abe bfd1 c0bd 1bab 8e3d 4a1b b63b
000002f0: dc19 263d 935a bf3c b02f 443d 4241 babd
00000300: 9ad4 fabd cea2 8ebe db22 793d 5312 1bbe
00000310: c015 93be f840 85be 98ad 5bbd 2785 4d3d
00000320: e6f5 1ebc b8a0 003d 5ff2 32bd 0af5 a1bd
00000330: 0a01 3fbc 80ec 133d 4649 3cbd 8154 83bd
00000340: 7182 843d f891 4f3d 99ff b2bd 2619 93bd
00000350: 55f3 9e3d 226f dc3d 9562 08bc 8351 9f3c
00000360: 6b6a 5cbc fc3c e8bd a333 02bd de70 2b3c
00000370: b7e9 71bc ca09 03bd 36d3 7c3b 5875 c9bd
00000380: 032a 8b3c ce00 a9be 15a5 613d f189 35be
00000390: 1d3d aa3b 6d7e 32be 4142 13be 5bcf b53b
000003a0: 13c8 24bd a6e4 32be a4d2 24be 01de f8bd
000003b0: 1277 ebbd e602 07bd 6879 503d 7ca0 15be
000003c0: 473e a2bd 59ad 17be c142 b2bd 5f19 12be
000003d0: cf9b cebd 396e 8a3b d8c9 2b3d 1f80 09be
000003e0: dfbb b2bd ca88 8d3d f75a 96bd 8597 d83c
000003f0: 27e5 82bd a1f8 83bc 0dc4 463c 7a89 49bc

bias f4 [62]
-0.03836342 -0.018310318 0.0267212 -0.06505396 0.008826957 -0.03143256 -0.018264472 -0.010793586
-0.037326984 0.013787967 -0.020654636 -0.020749144 0.016008595 -0.05711911 -0.0761542 -0.042565286
0.018670643 0.029665144 -0.008534037 -0.03997742 0.00924109 0.0153595 0.02676189 0.03378516
-0.04354104 -0.013675113 0.026530506 -0.010643758 -0.001263416 -0.04894698 0.0016322654 -0.014037161
-0.00065826194 0.008449797 -0.04085307 -0.012031596 0.027634423 0.03650238 0.015103869 0.07702268
0.015058968 0.024714421 -0.03369347 -0.065851316 0.10721665 0.033286583 1.7416e-07 -0.045403592
0.045551404 -0.0097491965 -0.018265747 -0.05708465 0.048938394 0.0027116064 -0.08154333 -0.041865893
-0.014803239 -0.06266223 0.058619346 -0.009129547 -0.069207534 0.020690946
00000000: f622 1dbd 85ff 95bc 6be6 da3c 033b 85bd
00000010: f19e 103c 6ebf 00bd 609f 95bc 95d7 30bc
00000020: 2ee4 18bd ede6 613c e933 a9bc 1cfa a9bc
00000030: 7524 833c baf5 69bd bcf6 9bbd f058 2ebd
00000040: 2df3 983c 5104 f33c 58d2 0bbc 5dbf 23bd
00000050: f167 173c 6aa6 7b3c c03b db3c 4f62 0a3d
00000060: 1758 32bd 950d 60bc 8156 d93c 2863 2ebc
00000070: 3599 a5ba a17c 48bd bdf1 d53a 1ffc 65bc
00000080: 368f 2cba 0471 0a3c 8c55 27bd 2c20 45bc
00000090: 9661 e23c 8583 153d 3876 773c 11be 9d3d
000000a0: e4b9 763c e675 ca3c 2a02 0abd 0edd 86bd
000000b0: 6794 db3d 8357 083d bc00 3b34 1ef9 39bd
000000c0: 1c94 3a3d 18bb 1fbc 0ca2 95bc 98d1 69bd
000000d0: a073 483d 35b5 313b 3000 a7bd 927b 2bbd
000000e0: 4989 72bc 0e55 80bd d71a 703d 1894 15bc
000000f0: aebc 8dbd 0f80 a93c
